/home/ajivani/WLROM_new/WhiteLight
PNODE_Conv(
  (encoder): Sequential(
    (0): ZeroPad2d((7, 8, 7, 8))
    (1): Conv2d(1, 4, kernel_size=(16, 16), stride=(2, 2))
    (2): ELU(alpha=1.0)
    (3): ZeroPad2d((3, 4, 3, 4))
    (4): Conv2d(4, 8, kernel_size=(8, 8), stride=(2, 2))
    (5): ELU(alpha=1.0)
    (6): ZeroPad2d((1, 2, 1, 2))
    (7): Conv2d(8, 16, kernel_size=(4, 4), stride=(2, 2))
    (8): ELU(alpha=1.0)
    (9): ZeroPad2d((0, 1, 0, 1))
    (10): Conv2d(16, 32, kernel_size=(2, 2), stride=(2, 2))
    (11): ELU(alpha=1.0)
    (12): ZeroPad2d((0, 0, 0, 0))
    (13): Conv2d(32, 64, kernel_size=(1, 1), stride=(2, 2))
    (14): ELU(alpha=1.0)
    (15): Flatten(start_dim=1, end_dim=-1)
    (16): Linear(in_features=256, out_features=8, bias=True)
    (17): ELU(alpha=1.0)
  )
  (pnode): ODENet(
    (odenet): Sequential(
      (0): Linear(in_features=10, out_features=50, bias=True)
      (1): ELU(alpha=1.0)
      (2): Linear(in_features=50, out_features=50, bias=True)
      (3): ELU(alpha=1.0)
      (4): Linear(in_features=50, out_features=8, bias=True)
    )
  )
  (decoder_mlp): Sequential(
    (0): Linear(in_features=8, out_features=256, bias=True)
    (1): ELU(alpha=1.0)
  )
  (decoder_conv): Sequential(
    (0): ConvTranspose2d(64, 32, kernel_size=(4, 4), stride=(2, 2), padding=(1, 1))
    (1): ELU(alpha=1.0)
    (2): ConvTranspose2d(32, 16, kernel_size=(4, 4), stride=(2, 2), padding=(1, 1))
    (3): ELU(alpha=1.0)
    (4): ConvTranspose2d(16, 8, kernel_size=(8, 8), stride=(2, 2), padding=(3, 3))
    (5): ELU(alpha=1.0)
    (6): ConvTranspose2d(8, 4, kernel_size=(16, 16), stride=(2, 2), padding=(7, 7))
    (7): ELU(alpha=1.0)
    (8): ConvTranspose2d(4, 1, kernel_size=(16, 16), stride=(2, 2), padding=(7, 7))
    (9): ELU(alpha=1.0)
  )
)
Number of parameters: 75637
/home/ajivani/WLROM_new/WhiteLight
/home/ajivani/WLROM_new/WhiteLight
PNODE_Conv(
  (encoder): Sequential(
    (0): ZeroPad2d((7, 8, 7, 8))
    (1): Conv2d(1, 4, kernel_size=(16, 16), stride=(2, 2))
    (2): ELU(alpha=1.0)
    (3): ZeroPad2d((3, 4, 3, 4))
    (4): Conv2d(4, 8, kernel_size=(8, 8), stride=(2, 2))
    (5): ELU(alpha=1.0)
    (6): ZeroPad2d((1, 2, 1, 2))
    (7): Conv2d(8, 16, kernel_size=(4, 4), stride=(2, 2))
    (8): ELU(alpha=1.0)
    (9): ZeroPad2d((0, 1, 0, 1))
    (10): Conv2d(16, 32, kernel_size=(2, 2), stride=(2, 2))
    (11): ELU(alpha=1.0)
    (12): ZeroPad2d((0, 0, 0, 0))
    (13): Conv2d(32, 64, kernel_size=(1, 1), stride=(2, 2))
    (14): ELU(alpha=1.0)
    (15): Flatten(start_dim=1, end_dim=-1)
    (16): Linear(in_features=256, out_features=8, bias=True)
    (17): ELU(alpha=1.0)
  )
  (pnode): ODENet(
    (odenet): Sequential(
      (0): Linear(in_features=10, out_features=50, bias=True)
      (1): ELU(alpha=1.0)
      (2): Linear(in_features=50, out_features=50, bias=True)
      (3): ELU(alpha=1.0)
      (4): Linear(in_features=50, out_features=8, bias=True)
    )
  )
  (decoder_mlp): Sequential(
    (0): Linear(in_features=8, out_features=256, bias=True)
    (1): ELU(alpha=1.0)
  )
  (decoder_conv): Sequential(
    (0): ConvTranspose2d(64, 32, kernel_size=(4, 4), stride=(2, 2), padding=(1, 1))
    (1): ELU(alpha=1.0)
    (2): ConvTranspose2d(32, 16, kernel_size=(4, 4), stride=(2, 2), padding=(1, 1))
    (3): ELU(alpha=1.0)
    (4): ConvTranspose2d(16, 8, kernel_size=(8, 8), stride=(2, 2), padding=(3, 3))
    (5): ELU(alpha=1.0)
    (6): ConvTranspose2d(8, 4, kernel_size=(16, 16), stride=(2, 2), padding=(7, 7))
    (7): ELU(alpha=1.0)
    (8): ConvTranspose2d(4, 1, kernel_size=(16, 16), stride=(2, 2), padding=(7, 7))
    (9): ELU(alpha=1.0)
  )
)
PNODE_Conv(
  (encoder): Sequential(
    (0): ZeroPad2d((7, 8, 7, 8))
    (1): Conv2d(1, 4, kernel_size=(16, 16), stride=(2, 2))
    (2): ELU(alpha=1.0)
    (3): ZeroPad2d((3, 4, 3, 4))
    (4): Conv2d(4, 8, kernel_size=(8, 8), stride=(2, 2))
    (5): ELU(alpha=1.0)
    (6): ZeroPad2d((1, 2, 1, 2))
    (7): Conv2d(8, 16, kernel_size=(4, 4), stride=(2, 2))
    (8): ELU(alpha=1.0)
    (9): ZeroPad2d((0, 1, 0, 1))
    (10): Conv2d(16, 32, kernel_size=(2, 2), stride=(2, 2))
    (11): ELU(alpha=1.0)
    (12): ZeroPad2d((0, 0, 0, 0))
    (13): Conv2d(32, 64, kernel_size=(1, 1), stride=(2, 2))
    (14): ELU(alpha=1.0)
    (15): Flatten(start_dim=1, end_dim=-1)
    (16): Linear(in_features=256, out_features=8, bias=True)
    (17): ELU(alpha=1.0)
  )
  (pnode): ODENet(
    (odenet): Sequential(
      (0): Linear(in_features=10, out_features=50, bias=True)
      (1): ELU(alpha=1.0)
      (2): Linear(in_features=50, out_features=50, bias=True)
      (3): ELU(alpha=1.0)
      (4): Linear(in_features=50, out_features=8, bias=True)
    )
  )
  (decoder_mlp): Sequential(
    (0): Linear(in_features=8, out_features=256, bias=True)
    (1): ELU(alpha=1.0)
  )
  (decoder_conv): Sequential(
    (0): ConvTranspose2d(64, 32, kernel_size=(4, 4), stride=(2, 2), padding=(1, 1))
    (1): ELU(alpha=1.0)
    (2): ConvTranspose2d(32, 16, kernel_size=(4, 4), stride=(2, 2), padding=(1, 1))
    (3): ELU(alpha=1.0)
    (4): ConvTranspose2d(16, 8, kernel_size=(8, 8), stride=(2, 2), padding=(3, 3))
    (5): ELU(alpha=1.0)
    (6): ConvTranspose2d(8, 4, kernel_size=(16, 16), stride=(2, 2), padding=(7, 7))
    (7): ELU(alpha=1.0)
    (8): ConvTranspose2d(4, 1, kernel_size=(16, 16), stride=(2, 2), padding=(7, 7))
    (9): ELU(alpha=1.0)
  )
)
Number of parameters: 75637
Number of parameters: 75637
{'niters': 1000, 'lr': 0.01, 'save': 'experiments/', 'load': None, 'r': 1991, 'node-layers': 2, 'mlp-layers': 1, 'latents': 8, 'units': 50, 'test_mode': 't2p1', 'resize_dims': (32, 128), 'param_scaling': [1, 1]}
{'niters': 1000, 'lr': 0.01, 'save': 'experiments/', 'load': None, 'r': 1991, 'node-layers': 2, 'mlp-layers': 1, 'latents': 8, 'units': 50, 'test_mode': 't2p1', 'resize_dims': (32, 128), 'param_scaling': [1, 1]}
Checkpoint Path
Checkpoint Path
experiments/experiment_51801.ckpt
experiments/experiment_51801.ckpt
Input Dim: 
Input Dim: 
4096
4096
Param Dim: 
Param Dim: 
2
2
Latent Dim: 
Latent Dim: 
8
8
cpu
cpu
/home/ajivani/WLROM_new/WhiteLight
PNODE_Conv(
  (encoder): Sequential(
    (0): ZeroPad2d((7, 8, 7, 8))
    (1): Conv2d(1, 4, kernel_size=(16, 16), stride=(2, 2))
    (2): ELU(alpha=1.0)
    (3): ZeroPad2d((3, 4, 3, 4))
    (4): Conv2d(4, 8, kernel_size=(8, 8), stride=(2, 2))
    (5): ELU(alpha=1.0)
    (6): ZeroPad2d((1, 2, 1, 2))
    (7): Conv2d(8, 16, kernel_size=(4, 4), stride=(2, 2))
    (8): ELU(alpha=1.0)
    (9): ZeroPad2d((0, 1, 0, 1))
    (10): Conv2d(16, 32, kernel_size=(2, 2), stride=(2, 2))
    (11): ELU(alpha=1.0)
    (12): ZeroPad2d((0, 0, 0, 0))
    (13): Conv2d(32, 64, kernel_size=(1, 1), stride=(2, 2))
    (14): ELU(alpha=1.0)
    (15): Flatten(start_dim=1, end_dim=-1)
    (16): Linear(in_features=256, out_features=8, bias=True)
    (17): ELU(alpha=1.0)
  )
  (pnode): ODENet(
    (odenet): Sequential(
      (0): Linear(in_features=10, out_features=50, bias=True)
      (1): ELU(alpha=1.0)
      (2): Linear(in_features=50, out_features=50, bias=True)
      (3): ELU(alpha=1.0)
      (4): Linear(in_features=50, out_features=8, bias=True)
    )
  )
  (decoder_mlp): Sequential(
    (0): Linear(in_features=8, out_features=256, bias=True)
    (1): ELU(alpha=1.0)
  )
  (decoder_conv): Sequential(
    (0): ConvTranspose2d(64, 32, kernel_size=(4, 4), stride=(2, 2), padding=(1, 1))
    (1): ELU(alpha=1.0)
    (2): ConvTranspose2d(32, 16, kernel_size=(4, 4), stride=(2, 2), padding=(1, 1))
    (3): ELU(alpha=1.0)
    (4): ConvTranspose2d(16, 8, kernel_size=(8, 8), stride=(2, 2), padding=(3, 3))
    (5): ELU(alpha=1.0)
    (6): ConvTranspose2d(8, 4, kernel_size=(16, 16), stride=(2, 2), padding=(7, 7))
    (7): ELU(alpha=1.0)
    (8): ConvTranspose2d(4, 1, kernel_size=(16, 16), stride=(2, 2), padding=(7, 7))
    (9): ELU(alpha=1.0)
  )
)
Number of parameters: 75637
{'niters': 1000, 'lr': 0.01, 'save': 'experiments/', 'load': None, 'r': 1991, 'node-layers': 2, 'mlp-layers': 1, 'latents': 8, 'units': 50, 'test_mode': 't2p1', 'resize_dims': (32, 128), 'param_scaling': [1, 1]}
Checkpoint Path
experiments/experiment_68649.ckpt
Input Dim: 
4096
Param Dim: 
2
Latent Dim: 
8
cpu
/home/ajivani/WLROM_new/WhiteLight
PNODE_Conv(
  (encoder): Sequential(
    (0): ZeroPad2d((7, 8, 7, 8))
    (1): Conv2d(1, 4, kernel_size=(16, 16), stride=(2, 2))
    (2): ELU(alpha=1.0)
    (3): ZeroPad2d((3, 4, 3, 4))
    (4): Conv2d(4, 8, kernel_size=(8, 8), stride=(2, 2))
    (5): ELU(alpha=1.0)
    (6): ZeroPad2d((1, 2, 1, 2))
    (7): Conv2d(8, 16, kernel_size=(4, 4), stride=(2, 2))
    (8): ELU(alpha=1.0)
    (9): ZeroPad2d((0, 1, 0, 1))
    (10): Conv2d(16, 32, kernel_size=(2, 2), stride=(2, 2))
    (11): ELU(alpha=1.0)
    (12): ZeroPad2d((0, 0, 0, 0))
    (13): Conv2d(32, 64, kernel_size=(1, 1), stride=(2, 2))
    (14): ELU(alpha=1.0)
    (15): Flatten(start_dim=1, end_dim=-1)
    (16): Linear(in_features=256, out_features=8, bias=True)
    (17): ELU(alpha=1.0)
  )
  (pnode): ODENet(
    (odenet): Sequential(
      (0): Linear(in_features=10, out_features=50, bias=True)
      (1): ELU(alpha=1.0)
      (2): Linear(in_features=50, out_features=50, bias=True)
      (3): ELU(alpha=1.0)
      (4): Linear(in_features=50, out_features=8, bias=True)
    )
  )
  (decoder_mlp): Sequential(
    (0): Linear(in_features=8, out_features=256, bias=True)
    (1): ELU(alpha=1.0)
  )
  (decoder_conv): Sequential(
    (0): ConvTranspose2d(64, 32, kernel_size=(4, 4), stride=(2, 2), padding=(1, 1))
    (1): ELU(alpha=1.0)
    (2): ConvTranspose2d(32, 16, kernel_size=(4, 4), stride=(2, 2), padding=(1, 1))
    (3): ELU(alpha=1.0)
    (4): ConvTranspose2d(16, 8, kernel_size=(8, 8), stride=(2, 2), padding=(3, 3))
    (5): ELU(alpha=1.0)
    (6): ConvTranspose2d(8, 4, kernel_size=(16, 16), stride=(2, 2), padding=(7, 7))
    (7): ELU(alpha=1.0)
    (8): ConvTranspose2d(4, 1, kernel_size=(16, 16), stride=(2, 2), padding=(7, 7))
    (9): ELU(alpha=1.0)
  )
)
Number of parameters: 75637
{'niters': 1000, 'lr': 0.01, 'save': 'experiments/', 'load': None, 'r': 1991, 'node-layers': 2, 'mlp-layers': 1, 'latents': 8, 'units': 50, 'test_mode': 't2p1', 'resize_dims': (32, 128), 'param_scaling': [1, 1]}
Checkpoint Path
experiments/experiment_64987.ckpt
Input Dim: 
4096
Param Dim: 
2
Latent Dim: 
8
cpu
/home/ajivani/WLROM_new/WhiteLight
PNODE_Conv(
  (encoder): Sequential(
    (0): ZeroPad2d((7, 8, 7, 8))
    (1): Conv2d(1, 4, kernel_size=(16, 16), stride=(2, 2))
    (2): ELU(alpha=1.0)
    (3): ZeroPad2d((3, 4, 3, 4))
    (4): Conv2d(4, 8, kernel_size=(8, 8), stride=(2, 2))
    (5): ELU(alpha=1.0)
    (6): ZeroPad2d((1, 2, 1, 2))
    (7): Conv2d(8, 16, kernel_size=(4, 4), stride=(2, 2))
    (8): ELU(alpha=1.0)
    (9): ZeroPad2d((0, 1, 0, 1))
    (10): Conv2d(16, 32, kernel_size=(2, 2), stride=(2, 2))
    (11): ELU(alpha=1.0)
    (12): ZeroPad2d((0, 0, 0, 0))
    (13): Conv2d(32, 64, kernel_size=(1, 1), stride=(2, 2))
    (14): ELU(alpha=1.0)
    (15): Flatten(start_dim=1, end_dim=-1)
    (16): Linear(in_features=256, out_features=8, bias=True)
    (17): ELU(alpha=1.0)
  )
  (pnode): ODENet(
    (odenet): Sequential(
      (0): Linear(in_features=10, out_features=50, bias=True)
      (1): ELU(alpha=1.0)
      (2): Linear(in_features=50, out_features=50, bias=True)
      (3): ELU(alpha=1.0)
      (4): Linear(in_features=50, out_features=8, bias=True)
    )
  )
  (decoder_mlp): Sequential(
    (0): Linear(in_features=8, out_features=256, bias=True)
    (1): ELU(alpha=1.0)
  )
  (decoder_conv): Sequential(
    (0): ConvTranspose2d(64, 32, kernel_size=(4, 4), stride=(2, 2), padding=(1, 1))
    (1): ELU(alpha=1.0)
    (2): ConvTranspose2d(32, 16, kernel_size=(4, 4), stride=(2, 2), padding=(1, 1))
    (3): ELU(alpha=1.0)
    (4): ConvTranspose2d(16, 8, kernel_size=(8, 8), stride=(2, 2), padding=(3, 3))
    (5): ELU(alpha=1.0)
    (6): ConvTranspose2d(8, 4, kernel_size=(16, 16), stride=(2, 2), padding=(7, 7))
    (7): ELU(alpha=1.0)
    (8): ConvTranspose2d(4, 1, kernel_size=(16, 16), stride=(2, 2), padding=(7, 7))
    (9): ELU(alpha=1.0)
  )
)
Number of parameters: 75637
{'niters': 1000, 'lr': 0.01, 'save': 'experiments/', 'load': None, 'r': 1991, 'node-layers': 2, 'mlp-layers': 1, 'latents': 8, 'units': 50, 'test_mode': 't2p1', 'resize_dims': (32, 128), 'param_scaling': [1, 1]}
Checkpoint Path
experiments/experiment_21325.ckpt
Input Dim: 
4096
Param Dim: 
2
Latent Dim: 
8
cpu
/home/ajivani/WLROM_new/WhiteLight
/home/ajivani/WLROM_new/WhiteLight
PNODE_Conv(
  (encoder): Sequential(
    (0): ZeroPad2d((7, 8, 7, 8))
    (1): Conv2d(1, 4, kernel_size=(16, 16), stride=(2, 2))
    (2): ELU(alpha=1.0)
    (3): ZeroPad2d((3, 4, 3, 4))
    (4): Conv2d(4, 8, kernel_size=(8, 8), stride=(2, 2))
    (5): ELU(alpha=1.0)
    (6): ZeroPad2d((1, 2, 1, 2))
    (7): Conv2d(8, 16, kernel_size=(4, 4), stride=(2, 2))
    (8): ELU(alpha=1.0)
    (9): ZeroPad2d((0, 1, 0, 1))
    (10): Conv2d(16, 32, kernel_size=(2, 2), stride=(2, 2))
    (11): ELU(alpha=1.0)
    (12): ZeroPad2d((0, 0, 0, 0))
    (13): Conv2d(32, 64, kernel_size=(1, 1), stride=(2, 2))
    (14): ELU(alpha=1.0)
    (15): Flatten(start_dim=1, end_dim=-1)
    (16): Linear(in_features=256, out_features=8, bias=True)
    (17): ELU(alpha=1.0)
  )
  (pnode): ODENet(
    (odenet): Sequential(
      (0): Linear(in_features=10, out_features=50, bias=True)
      (1): ELU(alpha=1.0)
      (2): Linear(in_features=50, out_features=50, bias=True)
      (3): ELU(alpha=1.0)
      (4): Linear(in_features=50, out_features=8, bias=True)
    )
  )
  (decoder_mlp): Sequential(
    (0): Linear(in_features=8, out_features=256, bias=True)
    (1): ELU(alpha=1.0)
  )
  (decoder_conv): Sequential(
    (0): ConvTranspose2d(64, 32, kernel_size=(4, 4), stride=(2, 2), padding=(1, 1))
    (1): ELU(alpha=1.0)
    (2): ConvTranspose2d(32, 16, kernel_size=(4, 4), stride=(2, 2), padding=(1, 1))
    (3): ELU(alpha=1.0)
    (4): ConvTranspose2d(16, 8, kernel_size=(8, 8), stride=(2, 2), padding=(3, 3))
    (5): ELU(alpha=1.0)
    (6): ConvTranspose2d(8, 4, kernel_size=(16, 16), stride=(2, 2), padding=(7, 7))
    (7): ELU(alpha=1.0)
    (8): ConvTranspose2d(4, 1, kernel_size=(16, 16), stride=(2, 2), padding=(7, 7))
    (9): ELU(alpha=1.0)
  )
)
PNODE_Conv(
  (encoder): Sequential(
    (0): ZeroPad2d((7, 8, 7, 8))
    (1): Conv2d(1, 4, kernel_size=(16, 16), stride=(2, 2))
    (2): ELU(alpha=1.0)
    (3): ZeroPad2d((3, 4, 3, 4))
    (4): Conv2d(4, 8, kernel_size=(8, 8), stride=(2, 2))
    (5): ELU(alpha=1.0)
    (6): ZeroPad2d((1, 2, 1, 2))
    (7): Conv2d(8, 16, kernel_size=(4, 4), stride=(2, 2))
    (8): ELU(alpha=1.0)
    (9): ZeroPad2d((0, 1, 0, 1))
    (10): Conv2d(16, 32, kernel_size=(2, 2), stride=(2, 2))
    (11): ELU(alpha=1.0)
    (12): ZeroPad2d((0, 0, 0, 0))
    (13): Conv2d(32, 64, kernel_size=(1, 1), stride=(2, 2))
    (14): ELU(alpha=1.0)
    (15): Flatten(start_dim=1, end_dim=-1)
    (16): Linear(in_features=256, out_features=8, bias=True)
    (17): ELU(alpha=1.0)
  )
  (pnode): ODENet(
    (odenet): Sequential(
      (0): Linear(in_features=10, out_features=50, bias=True)
      (1): ELU(alpha=1.0)
      (2): Linear(in_features=50, out_features=50, bias=True)
      (3): ELU(alpha=1.0)
      (4): Linear(in_features=50, out_features=8, bias=True)
    )
  )
  (decoder_mlp): Sequential(
    (0): Linear(in_features=8, out_features=256, bias=True)
    (1): ELU(alpha=1.0)
  )
  (decoder_conv): Sequential(
    (0): ConvTranspose2d(64, 32, kernel_size=(4, 4), stride=(2, 2), padding=(1, 1))
    (1): ELU(alpha=1.0)
    (2): ConvTranspose2d(32, 16, kernel_size=(4, 4), stride=(2, 2), padding=(1, 1))
    (3): ELU(alpha=1.0)
    (4): ConvTranspose2d(16, 8, kernel_size=(8, 8), stride=(2, 2), padding=(3, 3))
    (5): ELU(alpha=1.0)
    (6): ConvTranspose2d(8, 4, kernel_size=(16, 16), stride=(2, 2), padding=(7, 7))
    (7): ELU(alpha=1.0)
    (8): ConvTranspose2d(4, 1, kernel_size=(16, 16), stride=(2, 2), padding=(7, 7))
    (9): ELU(alpha=1.0)
  )
)
Number of parameters: 75637
Number of parameters: 75637
{'niters': 1000, 'lr': 0.01, 'save': 'experiments/', 'load': None, 'r': 1991, 'node-layers': 2, 'mlp-layers': 1, 'latents': 8, 'units': 50, 'test_mode': 't2p1', 'resize_dims': (32, 128), 'param_scaling': [1, 1]}
{'niters': 1000, 'lr': 0.01, 'save': 'experiments/', 'load': None, 'r': 1991, 'node-layers': 2, 'mlp-layers': 1, 'latents': 8, 'units': 50, 'test_mode': 't2p1', 'resize_dims': (32, 128), 'param_scaling': [1, 1]}
Checkpoint Path
Checkpoint Path
experiments/experiment_67848.ckpt
experiments/experiment_67848.ckpt
Input Dim: 
Input Dim: 
4096
4096
Param Dim: 
Param Dim: 
2
2
Latent Dim: 
Latent Dim: 
8
8
cpu
cpu
/home/ajivani/WLROM_new/WhiteLight
PNODE_Conv(
  (encoder): Sequential(
    (0): ZeroPad2d((7, 8, 7, 8))
    (1): Conv2d(1, 4, kernel_size=(16, 16), stride=(2, 2))
    (2): ELU(alpha=1.0)
    (3): ZeroPad2d((3, 4, 3, 4))
    (4): Conv2d(4, 8, kernel_size=(8, 8), stride=(2, 2))
    (5): ELU(alpha=1.0)
    (6): ZeroPad2d((1, 2, 1, 2))
    (7): Conv2d(8, 16, kernel_size=(4, 4), stride=(2, 2))
    (8): ELU(alpha=1.0)
    (9): ZeroPad2d((0, 1, 0, 1))
    (10): Conv2d(16, 32, kernel_size=(2, 2), stride=(2, 2))
    (11): ELU(alpha=1.0)
    (12): ZeroPad2d((0, 0, 0, 0))
    (13): Conv2d(32, 64, kernel_size=(1, 1), stride=(2, 2))
    (14): ELU(alpha=1.0)
    (15): Flatten(start_dim=1, end_dim=-1)
    (16): Linear(in_features=256, out_features=8, bias=True)
    (17): ELU(alpha=1.0)
  )
  (pnode): ODENet(
    (odenet): Sequential(
      (0): Linear(in_features=10, out_features=50, bias=True)
      (1): ELU(alpha=1.0)
      (2): Linear(in_features=50, out_features=50, bias=True)
      (3): ELU(alpha=1.0)
      (4): Linear(in_features=50, out_features=8, bias=True)
    )
  )
  (decoder_mlp): Sequential(
    (0): Linear(in_features=8, out_features=256, bias=True)
    (1): ELU(alpha=1.0)
  )
  (decoder_conv): Sequential(
    (0): ConvTranspose2d(64, 32, kernel_size=(4, 4), stride=(2, 2), padding=(1, 1))
    (1): ELU(alpha=1.0)
    (2): ConvTranspose2d(32, 16, kernel_size=(4, 4), stride=(2, 2), padding=(1, 1))
    (3): ELU(alpha=1.0)
    (4): ConvTranspose2d(16, 8, kernel_size=(8, 8), stride=(2, 2), padding=(3, 3))
    (5): ELU(alpha=1.0)
    (6): ConvTranspose2d(8, 4, kernel_size=(16, 16), stride=(2, 2), padding=(7, 7))
    (7): ELU(alpha=1.0)
    (8): ConvTranspose2d(4, 1, kernel_size=(16, 16), stride=(2, 2), padding=(7, 7))
    (9): ELU(alpha=1.0)
  )
)
Number of parameters: 75637
{'niters': 1000, 'lr': 0.01, 'save': 'experiments/', 'load': None, 'r': 1991, 'node-layers': 2, 'mlp-layers': 1, 'latents': 8, 'units': 50, 'test_mode': 't2p1', 'resize_dims': (32, 128), 'param_scaling': [1, 1]}
Checkpoint Path
experiments/experiment_11871.ckpt
Input Dim: 
4096
Param Dim: 
2
Latent Dim: 
8
cpu
/home/ajivani/WLROM_new/WhiteLight
PNODE_Conv(
  (encoder): Sequential(
    (0): ZeroPad2d((7, 8, 7, 8))
    (1): Conv2d(1, 4, kernel_size=(16, 16), stride=(2, 2))
    (2): ELU(alpha=1.0)
    (3): ZeroPad2d((3, 4, 3, 4))
    (4): Conv2d(4, 8, kernel_size=(8, 8), stride=(2, 2))
    (5): ELU(alpha=1.0)
    (6): ZeroPad2d((1, 2, 1, 2))
    (7): Conv2d(8, 16, kernel_size=(4, 4), stride=(2, 2))
    (8): ELU(alpha=1.0)
    (9): ZeroPad2d((0, 1, 0, 1))
    (10): Conv2d(16, 32, kernel_size=(2, 2), stride=(2, 2))
    (11): ELU(alpha=1.0)
    (12): ZeroPad2d((0, 0, 0, 0))
    (13): Conv2d(32, 64, kernel_size=(1, 1), stride=(2, 2))
    (14): ELU(alpha=1.0)
    (15): Flatten(start_dim=1, end_dim=-1)
    (16): Linear(in_features=256, out_features=8, bias=True)
    (17): ELU(alpha=1.0)
  )
  (pnode): ODENet(
    (odenet): Sequential(
      (0): Linear(in_features=10, out_features=50, bias=True)
      (1): ELU(alpha=1.0)
      (2): Linear(in_features=50, out_features=50, bias=True)
      (3): ELU(alpha=1.0)
      (4): Linear(in_features=50, out_features=8, bias=True)
    )
  )
  (decoder_mlp): Sequential(
    (0): Linear(in_features=8, out_features=256, bias=True)
    (1): ELU(alpha=1.0)
  )
  (decoder_conv): Sequential(
    (0): ConvTranspose2d(64, 32, kernel_size=(4, 4), stride=(2, 2), padding=(1, 1))
    (1): ELU(alpha=1.0)
    (2): ConvTranspose2d(32, 16, kernel_size=(4, 4), stride=(2, 2), padding=(1, 1))
    (3): ELU(alpha=1.0)
    (4): ConvTranspose2d(16, 8, kernel_size=(8, 8), stride=(2, 2), padding=(3, 3))
    (5): ELU(alpha=1.0)
    (6): ConvTranspose2d(8, 4, kernel_size=(16, 16), stride=(2, 2), padding=(7, 7))
    (7): ELU(alpha=1.0)
    (8): ConvTranspose2d(4, 1, kernel_size=(16, 16), stride=(2, 2), padding=(7, 7))
    (9): ELU(alpha=1.0)
  )
)
Number of parameters: 75637
{'niters': 1000, 'lr': 0.01, 'save': 'experiments/', 'load': None, 'r': 1991, 'node-layers': 2, 'mlp-layers': 1, 'latents': 8, 'units': 50, 'test_mode': 't2p1', 'resize_dims': (32, 128), 'param_scaling': [1, 1]}
Checkpoint Path
experiments/experiment_4777.ckpt
Input Dim: 
4096
Param Dim: 
2
Latent Dim: 
8
cpu
Epoch 0001|Val loss|Loss 2.387035e-01|Train loss1.029569e-01|LR 0.01000|
/home/ajivani/WLROM_new/WhiteLight
PNODE_Conv(
  (encoder): Sequential(
    (0): ZeroPad2d((7, 8, 7, 8))
    (1): Conv2d(1, 4, kernel_size=(16, 16), stride=(2, 2))
    (2): ELU(alpha=1.0)
    (3): ZeroPad2d((3, 4, 3, 4))
    (4): Conv2d(4, 8, kernel_size=(8, 8), stride=(2, 2))
    (5): ELU(alpha=1.0)
    (6): ZeroPad2d((1, 2, 1, 2))
    (7): Conv2d(8, 16, kernel_size=(4, 4), stride=(2, 2))
    (8): ELU(alpha=1.0)
    (9): ZeroPad2d((0, 1, 0, 1))
    (10): Conv2d(16, 32, kernel_size=(2, 2), stride=(2, 2))
    (11): ELU(alpha=1.0)
    (12): ZeroPad2d((0, 0, 0, 0))
    (13): Conv2d(32, 64, kernel_size=(1, 1), stride=(2, 2))
    (14): ELU(alpha=1.0)
    (15): Flatten(start_dim=1, end_dim=-1)
    (16): Linear(in_features=256, out_features=8, bias=True)
    (17): ELU(alpha=1.0)
  )
  (pnode): ODENet(
    (odenet): Sequential(
      (0): Linear(in_features=10, out_features=50, bias=True)
      (1): ELU(alpha=1.0)
      (2): Linear(in_features=50, out_features=50, bias=True)
      (3): ELU(alpha=1.0)
      (4): Linear(in_features=50, out_features=8, bias=True)
    )
  )
  (decoder_mlp): Sequential(
    (0): Linear(in_features=8, out_features=256, bias=True)
    (1): ELU(alpha=1.0)
  )
  (decoder_conv): Sequential(
    (0): ConvTranspose2d(64, 32, kernel_size=(4, 4), stride=(2, 2), padding=(1, 1))
    (1): ELU(alpha=1.0)
    (2): ConvTranspose2d(32, 16, kernel_size=(4, 4), stride=(2, 2), padding=(1, 1))
    (3): ELU(alpha=1.0)
    (4): ConvTranspose2d(16, 8, kernel_size=(8, 8), stride=(2, 2), padding=(3, 3))
    (5): ELU(alpha=1.0)
    (6): ConvTranspose2d(8, 4, kernel_size=(16, 16), stride=(2, 2), padding=(7, 7))
    (7): ELU(alpha=1.0)
    (8): ConvTranspose2d(4, 1, kernel_size=(16, 16), stride=(2, 2), padding=(7, 7))
    (9): ELU(alpha=1.0)
  )
)
Number of parameters: 75637
{'niters': 1000, 'lr': 0.01, 'save': 'experiments/', 'load': None, 'r': 1991, 'node-layers': 2, 'mlp-layers': 1, 'latents': 8, 'units': 50, 'test_mode': 't2p1', 'resize_dims': (32, 128), 'param_scaling': [1, 1]}
Checkpoint Path
experiments/experiment_46347.ckpt
Input Dim: 
4096
Param Dim: 
2
Latent Dim: 
8
cpu
Epoch 0001|Val loss|Loss 8.517694e-02|Train loss1.322955e-01|LR 0.01000|
/home/ajivani/WLROM_new/WhiteLight
PNODE_Conv(
  (encoder): Sequential(
    (0): ZeroPad2d((7, 8, 7, 8))
    (1): Conv2d(1, 4, kernel_size=(16, 16), stride=(2, 2))
    (2): ELU(alpha=1.0)
    (3): ZeroPad2d((3, 4, 3, 4))
    (4): Conv2d(4, 8, kernel_size=(8, 8), stride=(2, 2))
    (5): ELU(alpha=1.0)
    (6): ZeroPad2d((1, 2, 1, 2))
    (7): Conv2d(8, 16, kernel_size=(4, 4), stride=(2, 2))
    (8): ELU(alpha=1.0)
    (9): ZeroPad2d((0, 1, 0, 1))
    (10): Conv2d(16, 32, kernel_size=(2, 2), stride=(2, 2))
    (11): ELU(alpha=1.0)
    (12): ZeroPad2d((0, 0, 0, 0))
    (13): Conv2d(32, 64, kernel_size=(1, 1), stride=(2, 2))
    (14): ELU(alpha=1.0)
    (15): Flatten(start_dim=1, end_dim=-1)
    (16): Linear(in_features=256, out_features=8, bias=True)
    (17): ELU(alpha=1.0)
  )
  (pnode): ODENet(
    (odenet): Sequential(
      (0): Linear(in_features=10, out_features=50, bias=True)
      (1): ELU(alpha=1.0)
      (2): Linear(in_features=50, out_features=50, bias=True)
      (3): ELU(alpha=1.0)
      (4): Linear(in_features=50, out_features=8, bias=True)
    )
  )
  (decoder_mlp): Sequential(
    (0): Linear(in_features=8, out_features=256, bias=True)
    (1): ELU(alpha=1.0)
  )
  (decoder_conv): Sequential(
    (0): ConvTranspose2d(64, 32, kernel_size=(4, 4), stride=(2, 2), padding=(1, 1))
    (1): ELU(alpha=1.0)
    (2): ConvTranspose2d(32, 16, kernel_size=(4, 4), stride=(2, 2), padding=(1, 1))
    (3): ELU(alpha=1.0)
    (4): ConvTranspose2d(16, 8, kernel_size=(8, 8), stride=(2, 2), padding=(3, 3))
    (5): ELU(alpha=1.0)
    (6): ConvTranspose2d(8, 4, kernel_size=(16, 16), stride=(2, 2), padding=(7, 7))
    (7): ELU(alpha=1.0)
    (8): ConvTranspose2d(4, 1, kernel_size=(16, 16), stride=(2, 2), padding=(7, 7))
    (9): ELU(alpha=1.0)
  )
)
Number of parameters: 75637
{'niters': 1000, 'lr': 0.01, 'save': 'experiments/', 'load': None, 'r': 1991, 'node-layers': 2, 'mlp-layers': 1, 'latents': 8, 'units': 50, 'test_mode': 't2p1', 'resize_dims': (32, 128), 'param_scaling': [1, 1]}
Checkpoint Path
experiments/experiment_46284.ckpt
Input Dim: 
4096
Param Dim: 
…
Epoch 0020|Val loss|Loss 9.104247e-02|Train loss9.123936e-02|LR 0.00000|
Epoch 0021|Val loss|Loss 9.104111e-02|Train loss9.123809e-02|LR 0.00000|
Epoch 0022|Val loss|Loss 9.103978e-02|Train loss9.123676e-02|LR 0.00000|
Epoch 0023|Val loss|Loss 9.103839e-02|Train loss9.123545e-02|LR 0.00000|
Epoch 0024|Val loss|Loss 9.103699e-02|Train loss9.123411e-02|LR 0.00000|
Epoch 0025|Val loss|Loss 9.103557e-02|Train loss9.123275e-02|LR 0.00000|
Epoch 0026|Val loss|Loss 9.103417e-02|Train loss9.123138e-02|LR 0.00000|
/home/ajivani/WLROM_new/WhiteLight
PNODE_Conv(
  (encoder): Sequential(
    (0): ZeroPad2d((7, 8, 7, 8))
    (1): Conv2d(1, 4, kernel_size=(16, 16), stride=(2, 2))
    (2): ELU(alpha=1.0)
    (3): ZeroPad2d((3, 4, 3, 4))
    (4): Conv2d(4, 8, kernel_size=(8, 8), stride=(2, 2))
    (5): ELU(alpha=1.0)
    (6): ZeroPad2d((1, 2, 1, 2))
    (7): Conv2d(8, 16, kernel_size=(4, 4), stride=(2, 2))
    (8): ELU(alpha=1.0)
    (9): ZeroPad2d((0, 1, 0, 1))
    (10): Conv2d(16, 32, kernel_size=(2, 2), stride=(2, 2))
    (11): ELU(alpha=1.0)
    (12): ZeroPad2d((0, 0, 0, 0))
    (13): Conv2d(32, 64, kernel_size=(1, 1), stride=(2, 2))
    (14): ELU(alpha=1.0)
    (15): Flatten(start_dim=1, end_dim=-1)
    (16): Linear(in_features=256, out_features=8, bias=True)
    (17): ELU(alpha=1.0)
  )
  (pnode): ODENet(
    (odenet): Sequential(
      (0): Linear(in_features=10, out_features=50, bias=True)
      (1): ELU(alpha=1.0)
      (2): Linear(in_features=50, out_features=50, bias=True)
      (3): ELU(alpha=1.0)
      (4): Linear(in_features=50, out_features=8, bias=True)
    )
  )
  (decoder_mlp): Sequential(
    (0): Linear(in_features=8, out_features=256, bias=True)
    (1): ELU(alpha=1.0)
  )
  (decoder_conv): Sequential(
    (0): ConvTranspose2d(64, 32, kernel_size=(4, 4), stride=(2, 2), padding=(1, 1))
    (1): ELU(alpha=1.0)
    (2): ConvTranspose2d(32, 16, kernel_size=(4, 4), stride=(2, 2), padding=(1, 1))
    (3): ELU(alpha=1.0)
    (4): ConvTranspose2d(16, 8, kernel_size=(8, 8), stride=(2, 2), padding=(3, 3))
    (5): ELU(alpha=1.0)
    (6): ConvTranspose2d(8, 4, kernel_size=(16, 16), stride=(2, 2), padding=(7, 7))
    (7): ELU(alpha=1.0)
    (8): ConvTranspose2d(4, 1, kernel_size=(16, 16), stride=(2, 2), padding=(7, 7))
    (9): ELU(alpha=1.0)
  )
)
Number of parameters: 75637
{'niters': 1000, 'lr': 0.01, 'save': 'experiments/', 'load': None, 'r': 1991, 'node-layers': 2, 'mlp-layers': 1, 'latents': 8, 'units': 50, 'test_mode': 't2p1', 'resize_dims': (32, 128), 'param_scaling': [1, 1]}
Checkpoint Path
experiments/experiment_85094.ckpt
Input Dim: 
4096
Param Dim: 
…
Epoch 2493|Val loss 3.644514e-04|Train loss 1.111160e-04|LR 0.00016|
Epoch 2494|Val loss 3.644312e-04|Train loss 1.110900e-04|LR 0.00016|
Epoch 2495|Val loss 3.644107e-04|Train loss 1.110639e-04|LR 0.00016|
Epoch 2496|Val loss 3.643905e-04|Train loss 1.110378e-04|LR 0.00016|
Epoch 2497|Val loss 3.643701e-04|Train loss 1.110117e-04|LR 0.00016|
Epoch 2498|Val loss 3.643495e-04|Train loss 1.109856e-04|LR 0.00016|
Epoch 2499|Val loss 3.643291e-04|Train loss 1.109595e-04|LR 0.00016|
Epoch 2500|Val loss 3.643087e-04|Train loss 1.109334e-04|LR 0.00016|
/home/ajivani/WLROM_new/WhiteLight
PNODE_Conv(
  (encoder): Sequential(
    (0): ZeroPad2d((7, 8, 7, 8))
    (1): Conv2d(1, 4, kernel_size=(16, 16), stride=(2, 2))
    (2): ELU(alpha=1.0)
    (3): ZeroPad2d((3, 4, 3, 4))
    (4): Conv2d(4, 8, kernel_size=(8, 8), stride=(2, 2))
    (5): ELU(alpha=1.0)
    (6): ZeroPad2d((1, 2, 1, 2))
    (7): Conv2d(8, 16, kernel_size=(4, 4), stride=(2, 2))
    (8): ELU(alpha=1.0)
    (9): ZeroPad2d((0, 1, 0, 1))
    (10): Conv2d(16, 32, kernel_size=(2, 2), stride=(2, 2))
    (11): ELU(alpha=1.0)
    (12): ZeroPad2d((0, 0, 0, 0))
    (13): Conv2d(32, 64, kernel_size=(1, 1), stride=(2, 2))
    (14): ELU(alpha=1.0)
    (15): Flatten(start_dim=1, end_dim=-1)
    (16): Linear(in_features=256, out_features=8, bias=True)
    (17): ELU(alpha=1.0)
  )
  (pnode): ODENet(
    (odenet): Sequential(
      (0): Linear(in_features=10, out_features=50, bias=True)
      (1): ELU(alpha=1.0)
      (2): Linear(in_features=50, out_features=50, bias=True)
      (3): ELU(alpha=1.0)
      (4): Linear(in_features=50, out_features=8, bias=True)
    )
  )
  (decoder_mlp): Sequential(
    (0): Linear(in_features=8, out_features=256, bias=True)
    (1): ELU(alpha=1.0)
  )
  (decoder_conv): Sequential(
    (0): ConvTranspose2d(64, 32, kernel_size=(4, 4), stride=(2, 2), padding=(1, 1))
    (1): ELU(alpha=1.0)
    (2): ConvTranspose2d(32, 16, kernel_size=(4, 4), stride=(2, 2), padding=(1, 1))
    (3): ELU(alpha=1.0)
    (4): ConvTranspose2d(16, 8, kernel_size=(8, 8), stride=(2, 2), padding=(3, 3))
    (5): ELU(alpha=1.0)
    (6): ConvTranspose2d(8, 4, kernel_size=(16, 16), stride=(2, 2), padding=(7, 7))
    (7): ELU(alpha=1.0)
    (8): ConvTranspose2d(4, 1, kernel_size=(16, 16), stride=(2, 2), padding=(7, 7))
    (9): ELU(alpha=1.0)
  )
)
Number of parameters: 75637
{'niters': 2500, 'lr': 0.01, 'save': 'experiments/', 'load': 14708, 'r': 1991, 'node-layers': 2, 'mlp-layers': 1, 'latents': 8, 'units': 50, 'test_mode': 't5p4', 'resize_dims': (32, 128), 'param_scaling': [50, 1]}
Checkpoint Path
experiments/experiment_14708.ckpt
Input Dim: 
4096
Param Dim: 
2
Latent Dim: 
8
cpu
/home/ajivani/WLROM_new/WhiteLight
/home/ajivani/WLROM_new/WhiteLight
PNODE_Conv(
  (encoder): Sequential(
    (0): ZeroPad2d((7, 8, 7, 8))
    (1): Conv2d(1, 4, kernel_size=(16, 16), stride=(2, 2))
    (2): ELU(alpha=1.0)
    (3): ZeroPad2d((3, 4, 3, 4))
    (4): Conv2d(4, 8, kernel_size=(8, 8), stride=(2, 2))
    (5): ELU(alpha=1.0)
    (6): ZeroPad2d((1, 2, 1, 2))
    (7): Conv2d(8, 16, kernel_size=(4, 4), stride=(2, 2))
    (8): ELU(alpha=1.0)
    (9): ZeroPad2d((0, 1, 0, 1))
    (10): Conv2d(16, 32, kernel_size=(2, 2), stride=(2, 2))
    (11): ELU(alpha=1.0)
    (12): ZeroPad2d((0, 0, 0, 0))
    (13): Conv2d(32, 64, kernel_size=(1, 1), stride=(2, 2))
    (14): ELU(alpha=1.0)
    (15): Flatten(start_dim=1, end_dim=-1)
    (16): Linear(in_features=256, out_features=8, bias=True)
    (17): ELU(alpha=1.0)
  )
  (pnode): ODENet(
    (odenet): Sequential(
      (0): Linear(in_features=10, out_features=50, bias=True)
      (1): ELU(alpha=1.0)
      (2): Linear(in_features=50, out_features=50, bias=True)
      (3): ELU(alpha=1.0)
      (4): Linear(in_features=50, out_features=8, bias=True)
    )
  )
  (decoder_mlp): Sequential(
    (0): Linear(in_features=8, out_features=256, bias=True)
    (1): ELU(alpha=1.0)
  )
  (decoder_conv): Sequential(
    (0): ConvTranspose2d(64, 32, kernel_size=(4, 4), stride=(2, 2), padding=(1, 1))
    (1): ELU(alpha=1.0)
    (2): ConvTranspose2d(32, 16, kernel_size=(4, 4), stride=(2, 2), padding=(1, 1))
    (3): ELU(alpha=1.0)
    (4): ConvTranspose2d(16, 8, kernel_size=(8, 8), stride=(2, 2), padding=(3, 3))
    (5): ELU(alpha=1.0)
    (6): ConvTranspose2d(8, 4, kernel_size=(16, 16), stride=(2, 2), padding=(7, 7))
    (7): ELU(alpha=1.0)
    (8): ConvTranspose2d(4, 1, kernel_size=(16, 16), stride=(2, 2), padding=(7, 7))
    (9): ELU(alpha=1.0)
  )
)
PNODE_Conv(
  (encoder): Sequential(
    (0): ZeroPad2d((7, 8, 7, 8))
    (1): Conv2d(1, 4, kernel_size=(16, 16), stride=(2, 2))
    (2): ELU(alpha=1.0)
    (3): ZeroPad2d((3, 4, 3, 4))
    (4): Conv2d(4, 8, kernel_size=(8, 8), stride=(2, 2))
    (5): ELU(alpha=1.0)
    (6): ZeroPad2d((1, 2, 1, 2))
    (7): Conv2d(8, 16, kernel_size=(4, 4), stride=(2, 2))
    (8): ELU(alpha=1.0)
    (9): ZeroPad2d((0, 1, 0, 1))
    (10): Conv2d(16, 32, kernel_size=(2, 2), stride=(2, 2))
    (11): ELU(alpha=1.0)
    (12): ZeroPad2d((0, 0, 0, 0))
    (13): Conv2d(32, 64, kernel_size=(1, 1), stride=(2, 2))
    (14): ELU(alpha=1.0)
    (15): Flatten(start_dim=1, end_dim=-1)
    (16): Linear(in_features=256, out_features=8, bias=True)
    (17): ELU(alpha=1.0)
  )
  (pnode): ODENet(
    (odenet): Sequential(
      (0): Linear(in_features=10, out_features=50, bias=True)
      (1): ELU(alpha=1.0)
      (2): Linear(in_features=50, out_features=50, bias=True)
      (3): ELU(alpha=1.0)
      (4): Linear(in_features=50, out_features=8, bias=True)
    )
  )
  (decoder_mlp): Sequential(
    (0): Linear(in_features=8, out_features=256, bias=True)
    (1): ELU(alpha=1.0)
  )
  (decoder_conv): Sequential(
    (0): ConvTranspose2d(64, 32, kernel_size=(4, 4), stride=(2, 2), padding=(1, 1))
    (1): ELU(alpha=1.0)
    (2): ConvTranspose2d(32, 16, kernel_size=(4, 4), stride=(2, 2), padding=(1, 1))
    (3): ELU(alpha=1.0)
    (4): ConvTranspose2d(16, 8, kernel_size=(8, 8), stride=(2, 2), padding=(3, 3))
    (5): ELU(alpha=1.0)
    (6): ConvTranspose2d(8, 4, kernel_size=(16, 16), stride=(2, 2), padding=(7, 7))
    (7): ELU(alpha=1.0)
    (8): ConvTranspose2d(4, 1, kernel_size=(16, 16), stride=(2, 2), padding=(7, 7))
    (9): ELU(alpha=1.0)
  )
)
Number of parameters: 75637
Number of parameters: 75637
{'niters': 2500, 'lr': 0.01, 'save': 'experiments/', 'load': 14708, 'r': 1991, 'node-layers': 2, 'mlp-layers': 1, 'latents': 8, 'units': 50, 'test_mode': 't5p4', 'resize_dims': (32, 128), 'param_scaling': [50, 1]}
{'niters': 2500, 'lr': 0.01, 'save': 'experiments/', 'load': 14708, 'r': 1991, 'node-layers': 2, 'mlp-layers': 1, 'latents': 8, 'units': 50, 'test_mode': 't5p4', 'resize_dims': (32, 128), 'param_scaling': [50, 1]}
…
{'niters': 2500, 'lr': 0.01, 'save': 'experiments/', 'load': None, 'r': 1991, 'node-layers': 2, 'mlp-layers': 1, 'latents': 8, 'units': 50, 'test_mode': 't5p4', 'resize_dims': (32, 128), 'param_scaling': [50, 1]}
Checkpoint Path
Checkpoint Path
Checkpoint Path
experiments/experiment_52524.ckpt
experiments/experiment_52524.ckpt
experiments/experiment_52524.ckpt
Input Dim: 
Input Dim: 
Input Dim: 
4096
4096
4096
Param Dim: 
Param Dim: 
Param Dim: 
2
2
2
Latent Dim: 
Latent Dim: 
Latent Dim: 
8
8
8
cuda:0
cuda:0
cuda:0
/home/ajivani/WLROM_new/WhiteLight
PNODE_Conv(
  (encoder): Sequential(
    (0): ZeroPad2d((7, 8, 7, 8))
    (1): Conv2d(1, 4, kernel_size=(16, 16), stride=(2, 2))
    (2): ELU(alpha=1.0)
    (3): ZeroPad2d((3, 4, 3, 4))
    (4): Conv2d(4, 8, kernel_size=(8, 8), stride=(2, 2))
    (5): ELU(alpha=1.0)
    (6): ZeroPad2d((1, 2, 1, 2))
    (7): Conv2d(8, 16, kernel_size=(4, 4), stride=(2, 2))
    (8): ELU(alpha=1.0)
    (9): ZeroPad2d((0, 1, 0, 1))
    (10): Conv2d(16, 32, kernel_size=(2, 2), stride=(2, 2))
    (11): ELU(alpha=1.0)
    (12): ZeroPad2d((0, 0, 0, 0))
    (13): Conv2d(32, 64, kernel_size=(1, 1), stride=(2, 2))
    (14): ELU(alpha=1.0)
    (15): Flatten(start_dim=1, end_dim=-1)
    (16): Linear(in_features=256, out_features=8, bias=True)
    (17): ELU(alpha=1.0)
  )
  (pnode): ODENet(
    (odenet): Sequential(
      (0): Linear(in_features=10, out_features=50, bias=True)
      (1): ELU(alpha=1.0)
      (2): Linear(in_features=50, out_features=50, bias=True)
      (3): ELU(alpha=1.0)
      (4): Linear(in_features=50, out_features=8, bias=True)
    )
  )
  (decoder_mlp): Sequential(
    (0): Linear(in_features=8, out_features=256, bias=True)
    (1): ELU(alpha=1.0)
  )
  (decoder_conv): Sequential(
    (0): ConvTranspose2d(64, 32, kernel_size=(4, 4), stride=(2, 2), padding=(1, 1))
    (1): ELU(alpha=1.0)
    (2): ConvTranspose2d(32, 16, kernel_size=(4, 4), stride=(2, 2), padding=(1, 1))
    (3): ELU(alpha=1.0)
    (4): ConvTranspose2d(16, 8, kernel_size=(8, 8), stride=(2, 2), padding=(3, 3))
    (5): ELU(alpha=1.0)
    (6): ConvTranspose2d(8, 4, kernel_size=(16, 16), stride=(2, 2), padding=(7, 7))
    (7): ELU(alpha=1.0)
    (8): ConvTranspose2d(4, 1, kernel_size=(16, 16), stride=(2, 2), padding=(7, 7))
    (9): ELU(alpha=1.0)
  )
)
Number of parameters: 75637
{'niters': 2500, 'lr': 0.01, 'save': 'experiments/', 'load': None, 'r': 1991, 'node-layers': 2, 'mlp-layers': 1, 'latents': 8, 'units': 50, 'test_mode': 't5p4', 'resize_dims': (32, 128), 'param_scaling': [50, 1]}
Checkpoint Path
experiments/experiment_71007.ckpt
Input Dim: 
4096
Param Dim: 
2
Latent Dim: 
8
cuda:0
/home/ajivani/WLROM_new/WhiteLight
PNODE_Conv(
  (encoder): Sequential(
    (0): ZeroPad2d((7, 8, 7, 8))
    (1): Conv2d(1, 4, kernel_size=(16, 16), stride=(2, 2))
    (2): ELU(alpha=1.0)
    (3): ZeroPad2d((3, 4, 3, 4))
    (4): Conv2d(4, 8, kernel_size=(8, 8), stride=(2, 2))
    (5): ELU(alpha=1.0)
    (6): ZeroPad2d((1, 2, 1, 2))
    (7): Conv2d(8, 16, kernel_size=(4, 4), stride=(2, 2))
    (8): ELU(alpha=1.0)
    (9): ZeroPad2d((0, 1, 0, 1))
    (10): Conv2d(16, 32, kernel_size=(2, 2), stride=(2, 2))
    (11): ELU(alpha=1.0)
    (12): ZeroPad2d((0, 0, 0, 0))
    (13): Conv2d(32, 64, kernel_size=(1, 1), stride=(2, 2))
    (14): ELU(alpha=1.0)
    (15): Flatten(start_dim=1, end_dim=-1)
    (16): Linear(in_features=256, out_features=8, bias=True)
    (17): ELU(alpha=1.0)
  )
  (pnode): ODENet(
    (odenet): Sequential(
      (0): Linear(in_features=10, out_features=50, bias=True)
      (1): ELU(alpha=1.0)
      (2): Linear(in_features=50, out_features=50, bias=True)
      (3): ELU(alpha=1.0)
      (4): Linear(in_features=50, out_features=8, bias=True)
    )
  )
  (decoder_mlp): Sequential(
    (0): Linear(in_features=8, out_features=256, bias=True)
    (1): ELU(alpha=1.0)
  )
  (decoder_conv): Sequential(
    (0): ConvTranspose2d(64, 32, kernel_size=(4, 4), stride=(2, 2), padding=(1, 1))
    (1): ELU(alpha=1.0)
    (2): ConvTranspose2d(32, 16, kernel_size=(4, 4), stride=(2, 2), padding=(1, 1))
    (3): ELU(alpha=1.0)
    (4): ConvTranspose2d(16, 8, kernel_size=(8, 8), stride=(2, 2), padding=(3, 3))
    (5): ELU(alpha=1.0)
    (6): ConvTranspose2d(8, 4, kernel_size=(16, 16), stride=(2, 2), padding=(7, 7))
    (7): ELU(alpha=1.0)
    (8): ConvTranspose2d(4, 1, kernel_size=(16, 16), stride=(2, 2), padding=(7, 7))
    (9): ELU(alpha=1.0)
  )
)
Number of parameters: 75637
{'niters': 2500, 'lr': 0.01, 'save': 'experiments/', 'load': None, 'r': 1991, 'node-layers': 2, 'mlp-layers': 1, 'latents': 8, 'units': 50, 'test_mode': 't5p4', 'resize_dims': (32, 128), 'param_scaling': [50, 1]}
Checkpoint Path
experiments/experiment_89620.ckpt
Input Dim: 
4096
Param Dim: 
2
Latent Dim: 
8
cuda:0
/home/ajivani/WLROM_new/WhiteLight
PNODE_Conv(
  (encoder): Sequential(
    (0): ZeroPad2d((7, 8, 7, 8))
    (1): Conv2d(1, 4, kernel_size=(16, 16), stride=(2, 2))
    (2): ELU(alpha=1.0)
    (3): ZeroPad2d((3, 4, 3, 4))
    (4): Conv2d(4, 8, kernel_size=(8, 8), stride=(2, 2))
    (5): ELU(alpha=1.0)
    (6): ZeroPad2d((1, 2, 1, 2))
    (7): Conv2d(8, 16, kernel_size=(4, 4), stride=(2, 2))
    (8): ELU(alpha=1.0)
    (9): ZeroPad2d((0, 1, 0, 1))
    (10): Conv2d(16, 32, kernel_size=(2, 2), stride=(2, 2))
    (11): ELU(alpha=1.0)
    (12): ZeroPad2d((0, 0, 0, 0))
    (13): Conv2d(32, 64, kernel_size=(1, 1), stride=(2, 2))
    (14): ELU(alpha=1.0)
    (15): Flatten(start_dim=1, end_dim=-1)
    (16): Linear(in_features=256, out_features=8, bias=True)
    (17): ELU(alpha=1.0)
  )
  (pnode): ODENet(
    (odenet): Sequential(
      (0): Linear(in_features=10, out_features=50, bias=True)
      (1): ELU(alpha=1.0)
      (2): Linear(in_features=50, out_features=50, bias=True)
      (3): ELU(alpha=1.0)
      (4): Linear(in_features=50, out_features=8, bias=True)
    )
  )
  (decoder_mlp): Sequential(
    (0): Linear(in_features=8, out_features=256, bias=True)
    (1): ELU(alpha=1.0)
  )
  (decoder_conv): Sequential(
    (0): ConvTranspose2d(64, 32, kernel_size=(4, 4), stride=(2, 2), padding=(1, 1))
    (1): ELU(alpha=1.0)
    (2): ConvTranspose2d(32, 16, kernel_size=(4, 4), stride=(2, 2), padding=(1, 1))
    (3): ELU(alpha=1.0)
    (4): ConvTranspose2d(16, 8, kernel_size=(8, 8), stride=(2, 2), padding=(3, 3))
    (5): ELU(alpha=1.0)
    (6): ConvTranspose2d(8, 4, kernel_size=(16, 16), stride=(2, 2), padding=(7, 7))
    (7): ELU(alpha=1.0)
    (8): ConvTranspose2d(4, 1, kernel_size=(16, 16), stride=(2, 2), padding=(7, 7))
    (9): ELU(alpha=1.0)
  )
)
Number of parameters: 75637
{'niters': 2500, 'lr': 0.01, 'save': 'experiments/', 'load': None, 'r': 1991, 'node-layers': 2, 'mlp-layers': 1, 'latents': 8, 'units': 50, 'test_mode': 't5p4', 'resize_dims': (32, 128), 'param_scaling': [50, 1]}
Checkpoint Path
experiments/experiment_98255.ckpt
Input Dim: 
4096
Param Dim: 
2
Latent Dim: 
8
cuda:0
/home/ajivani/WLROM_new/WhiteLight
PNODE_Conv(
  (encoder): Sequential(
    (0): ZeroPad2d((7, 8, 7, 8))
    (1): Conv2d(1, 4, kernel_size=(16, 16), stride=(2, 2))
    (2): ELU(alpha=1.0)
    (3): ZeroPad2d((3, 4, 3, 4))
    (4): Conv2d(4, 8, kernel_size=(8, 8), stride=(2, 2))
    (5): ELU(alpha=1.0)
    (6): ZeroPad2d((1, 2, 1, 2))
    (7): Conv2d(8, 16, kernel_size=(4, 4), stride=(2, 2))
    (8): ELU(alpha=1.0)
    (9): ZeroPad2d((0, 1, 0, 1))
    (10): Conv2d(16, 32, kernel_size=(2, 2), stride=(2, 2))
    (11): ELU(alpha=1.0)
    (12): ZeroPad2d((0, 0, 0, 0))
    (13): Conv2d(32, 64, kernel_size=(1, 1), stride=(2, 2))
    (14): ELU(alpha=1.0)
    (15): Flatten(start_dim=1, end_dim=-1)
    (16): Linear(in_features=256, out_features=8, bias=True)
    (17): ELU(alpha=1.0)
  )
  (pnode): ODENet(
    (odenet): Sequential(
      (0): Linear(in_features=10, out_features=50, bias=True)
      (1): ELU(alpha=1.0)
      (2): Linear(in_features=50, out_features=50, bias=True)
      (3): ELU(alpha=1.0)
      (4): Linear(in_features=50, out_features=8, bias=True)
    )
  )
  (decoder_mlp): Sequential(
    (0): Linear(in_features=8, out_features=256, bias=True)
    (1): ELU(alpha=1.0)
  )
  (decoder_conv): Sequential(
    (0): ConvTranspose2d(64, 32, kernel_size=(4, 4), stride=(2, 2), padding=(1, 1))
    (1): ELU(alpha=1.0)
    (2): ConvTranspose2d(32, 16, kernel_size=(4, 4), stride=(2, 2), padding=(1, 1))
    (3): ELU(alpha=1.0)
    (4): ConvTranspose2d(16, 8, kernel_size=(8, 8), stride=(2, 2), padding=(3, 3))
    (5): ELU(alpha=1.0)
    (6): ConvTranspose2d(8, 4, kernel_size=(16, 16), stride=(2, 2), padding=(7, 7))
    (7): ELU(alpha=1.0)
    (8): ConvTranspose2d(4, 1, kernel_size=(16, 16), stride=(2, 2), padding=(7, 7))
    (9): ELU(alpha=1.0)
  )
)
Number of parameters: 75637
{'niters': 2500, 'lr': 0.01, 'save': 'experiments/', 'load': None, 'r': 1991, 'node-layers': 2, 'mlp-layers': 1, 'latents': 8, 'units': 50, 'test_mode': 't5p4', 'resize_dims': (32, 128), 'param_scaling': [50, 1]}
Checkpoint Path
experiments/experiment_7106.ckpt
Input Dim: 
4096
Param Dim: 
…
Epoch 0321|Val loss 4.600684e-04|Train loss 2.187521e-04|LR 0.01000|
Epoch 0322|Val loss 4.598816e-04|Train loss 2.200537e-04|LR 0.01000|
Epoch 0323|Val loss 4.556125e-04|Train loss 2.205129e-04|LR 0.01000|
Epoch 0324|Val loss 4.581489e-04|Train loss 2.147920e-04|LR 0.01000|
Epoch 0325|Val loss 4.507855e-04|Train loss 2.189356e-04|LR 0.01000|
Epoch 0326|Val loss 4.528718e-04|Train loss 2.141520e-04|LR 0.01000|
Epoch 0327|Val loss 4.530003e-04|Train loss 2.140661e-04|LR 0.01000|
Epoch 0328|Val loss 4.465489e-04|Train loss 2.143403e-04|LR 0.01000|
/home/ajivani/WLROM_new/WhiteLight
PNODE_Conv(
  (encoder): Sequential(
    (0): ZeroPad2d((7, 8, 7, 8))
    (1): Conv2d(1, 4, kernel_size=(16, 16), stride=(2, 2))
    (2): ELU(alpha=1.0)
    (3): ZeroPad2d((3, 4, 3, 4))
    (4): Conv2d(4, 8, kernel_size=(8, 8), stride=(2, 2))
    (5): ELU(alpha=1.0)
    (6): ZeroPad2d((1, 2, 1, 2))
    (7): Conv2d(8, 16, kernel_size=(4, 4), stride=(2, 2))
    (8): ELU(alpha=1.0)
    (9): ZeroPad2d((0, 1, 0, 1))
    (10): Conv2d(16, 32, kernel_size=(2, 2), stride=(2, 2))
    (11): ELU(alpha=1.0)
    (12): ZeroPad2d((0, 0, 0, 0))
    (13): Conv2d(32, 64, kernel_size=(1, 1), stride=(2, 2))
    (14): ELU(alpha=1.0)
    (15): Flatten(start_dim=1, end_dim=-1)
    (16): Linear(in_features=256, out_features=8, bias=True)
    (17): ELU(alpha=1.0)
  )
  (pnode): ODENet(
    (odenet): Sequential(
      (0): Linear(in_features=10, out_features=50, bias=True)
      (1): ELU(alpha=1.0)
      (2): Linear(in_features=50, out_features=50, bias=True)
      (3): ELU(alpha=1.0)
      (4): Linear(in_features=50, out_features=8, bias=True)
    )
  )
  (decoder_mlp): Sequential(
    (0): Linear(in_features=8, out_features=256, bias=True)
    (1): ELU(alpha=1.0)
  )
  (decoder_conv): Sequential(
    (0): ConvTranspose2d(64, 32, kernel_size=(4, 4), stride=(2, 2), padding=(1, 1))
    (1): ELU(alpha=1.0)
    (2): ConvTranspose2d(32, 16, kernel_size=(4, 4), stride=(2, 2), padding=(1, 1))
    (3): ELU(alpha=1.0)
    (4): ConvTranspose2d(16, 8, kernel_size=(8, 8), stride=(2, 2), padding=(3, 3))
    (5): ELU(alpha=1.0)
    (6): ConvTranspose2d(8, 4, kernel_size=(16, 16), stride=(2, 2), padding=(7, 7))
    (7): ELU(alpha=1.0)
    (8): ConvTranspose2d(4, 1, kernel_size=(16, 16), stride=(2, 2), padding=(7, 7))
    (9): ELU(alpha=1.0)
  )
)
Number of parameters: 75637
{'niters': 4000, 'lr': 0.01, 'save': 'experiments/', 'load': None, 'r': 1991, 'node-layers': 2, 'mlp-layers': 1, 'latents': 8, 'units': 50, 'test_mode': 't5p4', 'resize_dims': (32, 128), 'param_scaling': [50, 1], 'warm_start': None}
Checkpoint Path
experiments/experiment_68217.ckpt
Input Dim: 
4096
Param Dim: 
2
Latent Dim: 
8
cuda:0
/home/ajivani/WLROM_new/WhiteLight
PNODE_Conv(
  (encoder): Sequential(
    (0): ZeroPad2d((7, 8, 7, 8))
    (1): Conv2d(1, 4, kernel_size=(16, 16), stride=(2, 2))
    (2): ELU(alpha=1.0)
    (3): ZeroPad2d((3, 4, 3, 4))
    (4): Conv2d(4, 8, kernel_size=(8, 8), stride=(2, 2))
    (5): ELU(alpha=1.0)
    (6): ZeroPad2d((1, 2, 1, 2))
    (7): Conv2d(8, 16, kernel_size=(4, 4), stride=(2, 2))
    (8): ELU(alpha=1.0)
    (9): ZeroPad2d((0, 1, 0, 1))
    (10): Conv2d(16, 32, kernel_size=(2, 2), stride=(2, 2))
    (11): ELU(alpha=1.0)
    (12): ZeroPad2d((0, 0, 0, 0))
    (13): Conv2d(32, 64, kernel_size=(1, 1), stride=(2, 2))
    (14): ELU(alpha=1.0)
    (15): Flatten(start_dim=1, end_dim=-1)
    (16): Linear(in_features=256, out_features=8, bias=True)
    (17): ELU(alpha=1.0)
  )
  (pnode): ODENet(
    (odenet): Sequential(
      (0): Linear(in_features=10, out_features=50, bias=True)
      (1): ELU(alpha=1.0)
      (2): Linear(in_features=50, out_features=50, bias=True)
      (3): ELU(alpha=1.0)
      (4): Linear(in_features=50, out_features=8, bias=True)
    )
  )
  (decoder_mlp): Sequential(
    (0): Linear(in_features=8, out_features=256, bias=True)
    (1): ELU(alpha=1.0)
  )
  (decoder_conv): Sequential(
    (0): ConvTranspose2d(64, 32, kernel_size=(4, 4), stride=(2, 2), padding=(1, 1))
    (1): ELU(alpha=1.0)
    (2): ConvTranspose2d(32, 16, kernel_size=(4, 4), stride=(2, 2), padding=(1, 1))
    (3): ELU(alpha=1.0)
    (4): ConvTranspose2d(16, 8, kernel_size=(8, 8), stride=(2, 2), padding=(3, 3))
    (5): ELU(alpha=1.0)
    (6): ConvTranspose2d(8, 4, kernel_size=(16, 16), stride=(2, 2), padding=(7, 7))
    (7): ELU(alpha=1.0)
    (8): ConvTranspose2d(4, 1, kernel_size=(16, 16), stride=(2, 2), padding=(7, 7))
    (9): ELU(alpha=1.0)
  )
)
Number of parameters: 75637
{'niters': 4000, 'lr': 0.01, 'save': 'experiments/', 'load': None, 'r': 1991, 'node-layers': 2, 'mlp-layers': 1, 'latents': 8, 'units': 50, 'test_mode': 't5p4', 'resize_dims': (32, 128), 'param_scaling': [50, 1], 'warm_start': None}
Checkpoint Path
experiments/experiment_38931.ckpt
Input Dim: 
…
