/home/ajivani/WLROM_new/WhiteLight
PNODE_Conv(
  (encoder): Sequential(
    (0): ZeroPad2d((7, 8, 7, 8))
    (1): Conv2d(1, 4, kernel_size=(16, 16), stride=(2, 2))
    (2): ELU(alpha=1.0)
    (3): ZeroPad2d((3, 4, 3, 4))
    (4): Conv2d(4, 8, kernel_size=(8, 8), stride=(2, 2))
    (5): ELU(alpha=1.0)
    (6): ZeroPad2d((1, 2, 1, 2))
    (7): Conv2d(8, 16, kernel_size=(4, 4), stride=(2, 2))
    (8): ELU(alpha=1.0)
    (9): ZeroPad2d((0, 1, 0, 1))
    (10): Conv2d(16, 32, kernel_size=(2, 2), stride=(2, 2))
    (11): ELU(alpha=1.0)
    (12): ZeroPad2d((0, 0, 0, 0))
    (13): Conv2d(32, 64, kernel_size=(1, 1), stride=(2, 2))
    (14): ELU(alpha=1.0)
    (15): Flatten(start_dim=1, end_dim=-1)
    (16): Linear(in_features=256, out_features=8, bias=True)
    (17): ELU(alpha=1.0)
  )
  (pnode): ODENet(
    (odenet): Sequential(
      (0): Linear(in_features=10, out_features=50, bias=True)
      (1): ELU(alpha=1.0)
      (2): Linear(in_features=50, out_features=50, bias=True)
      (3): ELU(alpha=1.0)
      (4): Linear(in_features=50, out_features=8, bias=True)
    )
  )
  (decoder_mlp): Sequential(
    (0): Linear(in_features=8, out_features=256, bias=True)
    (1): ELU(alpha=1.0)
  )
  (decoder_conv): Sequential(
    (0): ConvTranspose2d(64, 32, kernel_size=(4, 4), stride=(2, 2), padding=(1, 1))
    (1): ELU(alpha=1.0)
    (2): ConvTranspose2d(32, 16, kernel_size=(4, 4), stride=(2, 2), padding=(1, 1))
    (3): ELU(alpha=1.0)
    (4): ConvTranspose2d(16, 8, kernel_size=(8, 8), stride=(2, 2), padding=(3, 3))
    (5): ELU(alpha=1.0)
    (6): ConvTranspose2d(8, 4, kernel_size=(16, 16), stride=(2, 2), padding=(7, 7))
    (7): ELU(alpha=1.0)
    (8): ConvTranspose2d(4, 1, kernel_size=(16, 16), stride=(2, 2), padding=(7, 7))
    (9): ELU(alpha=1.0)
  )
)
Number of parameters: 75637
/home/ajivani/WLROM_new/WhiteLight
/home/ajivani/WLROM_new/WhiteLight
PNODE_Conv(
  (encoder): Sequential(
    (0): ZeroPad2d((7, 8, 7, 8))
    (1): Conv2d(1, 4, kernel_size=(16, 16), stride=(2, 2))
    (2): ELU(alpha=1.0)
    (3): ZeroPad2d((3, 4, 3, 4))
    (4): Conv2d(4, 8, kernel_size=(8, 8), stride=(2, 2))
    (5): ELU(alpha=1.0)
    (6): ZeroPad2d((1, 2, 1, 2))
    (7): Conv2d(8, 16, kernel_size=(4, 4), stride=(2, 2))
    (8): ELU(alpha=1.0)
    (9): ZeroPad2d((0, 1, 0, 1))
    (10): Conv2d(16, 32, kernel_size=(2, 2), stride=(2, 2))
    (11): ELU(alpha=1.0)
    (12): ZeroPad2d((0, 0, 0, 0))
    (13): Conv2d(32, 64, kernel_size=(1, 1), stride=(2, 2))
    (14): ELU(alpha=1.0)
    (15): Flatten(start_dim=1, end_dim=-1)
    (16): Linear(in_features=256, out_features=8, bias=True)
    (17): ELU(alpha=1.0)
  )
  (pnode): ODENet(
    (odenet): Sequential(
      (0): Linear(in_features=10, out_features=50, bias=True)
      (1): ELU(alpha=1.0)
      (2): Linear(in_features=50, out_features=50, bias=True)
      (3): ELU(alpha=1.0)
      (4): Linear(in_features=50, out_features=8, bias=True)
    )
  )
  (decoder_mlp): Sequential(
    (0): Linear(in_features=8, out_features=256, bias=True)
    (1): ELU(alpha=1.0)
  )
  (decoder_conv): Sequential(
    (0): ConvTranspose2d(64, 32, kernel_size=(4, 4), stride=(2, 2), padding=(1, 1))
    (1): ELU(alpha=1.0)
    (2): ConvTranspose2d(32, 16, kernel_size=(4, 4), stride=(2, 2), padding=(1, 1))
    (3): ELU(alpha=1.0)
    (4): ConvTranspose2d(16, 8, kernel_size=(8, 8), stride=(2, 2), padding=(3, 3))
    (5): ELU(alpha=1.0)
    (6): ConvTranspose2d(8, 4, kernel_size=(16, 16), stride=(2, 2), padding=(7, 7))
    (7): ELU(alpha=1.0)
    (8): ConvTranspose2d(4, 1, kernel_size=(16, 16), stride=(2, 2), padding=(7, 7))
    (9): ELU(alpha=1.0)
  )
)
PNODE_Conv(
  (encoder): Sequential(
    (0): ZeroPad2d((7, 8, 7, 8))
    (1): Conv2d(1, 4, kernel_size=(16, 16), stride=(2, 2))
    (2): ELU(alpha=1.0)
    (3): ZeroPad2d((3, 4, 3, 4))
    (4): Conv2d(4, 8, kernel_size=(8, 8), stride=(2, 2))
    (5): ELU(alpha=1.0)
    (6): ZeroPad2d((1, 2, 1, 2))
    (7): Conv2d(8, 16, kernel_size=(4, 4), stride=(2, 2))
    (8): ELU(alpha=1.0)
    (9): ZeroPad2d((0, 1, 0, 1))
    (10): Conv2d(16, 32, kernel_size=(2, 2), stride=(2, 2))
    (11): ELU(alpha=1.0)
    (12): ZeroPad2d((0, 0, 0, 0))
    (13): Conv2d(32, 64, kernel_size=(1, 1), stride=(2, 2))
    (14): ELU(alpha=1.0)
    (15): Flatten(start_dim=1, end_dim=-1)
    (16): Linear(in_features=256, out_features=8, bias=True)
    (17): ELU(alpha=1.0)
  )
  (pnode): ODENet(
    (odenet): Sequential(
      (0): Linear(in_features=10, out_features=50, bias=True)
      (1): ELU(alpha=1.0)
      (2): Linear(in_features=50, out_features=50, bias=True)
      (3): ELU(alpha=1.0)
      (4): Linear(in_features=50, out_features=8, bias=True)
    )
  )
  (decoder_mlp): Sequential(
    (0): Linear(in_features=8, out_features=256, bias=True)
    (1): ELU(alpha=1.0)
  )
  (decoder_conv): Sequential(
    (0): ConvTranspose2d(64, 32, kernel_size=(4, 4), stride=(2, 2), padding=(1, 1))
    (1): ELU(alpha=1.0)
    (2): ConvTranspose2d(32, 16, kernel_size=(4, 4), stride=(2, 2), padding=(1, 1))
    (3): ELU(alpha=1.0)
    (4): ConvTranspose2d(16, 8, kernel_size=(8, 8), stride=(2, 2), padding=(3, 3))
    (5): ELU(alpha=1.0)
    (6): ConvTranspose2d(8, 4, kernel_size=(16, 16), stride=(2, 2), padding=(7, 7))
    (7): ELU(alpha=1.0)
    (8): ConvTranspose2d(4, 1, kernel_size=(16, 16), stride=(2, 2), padding=(7, 7))
    (9): ELU(alpha=1.0)
  )
)
Number of parameters: 75637
Number of parameters: 75637
{'niters': 1000, 'lr': 0.01, 'save': 'experiments/', 'load': None, 'r': 1991, 'node-layers': 2, 'mlp-layers': 1, 'latents': 8, 'units': 50, 'test_mode': 't2p1', 'resize_dims': (32, 128), 'param_scaling': [1, 1]}
{'niters': 1000, 'lr': 0.01, 'save': 'experiments/', 'load': None, 'r': 1991, 'node-layers': 2, 'mlp-layers': 1, 'latents': 8, 'units': 50, 'test_mode': 't2p1', 'resize_dims': (32, 128), 'param_scaling': [1, 1]}
Checkpoint Path
Checkpoint Path
experiments/experiment_51801.ckpt
experiments/experiment_51801.ckpt
Input Dim: 
Input Dim: 
4096
4096
Param Dim: 
Param Dim: 
2
2
Latent Dim: 
Latent Dim: 
8
8
cpu
cpu
/home/ajivani/WLROM_new/WhiteLight
PNODE_Conv(
  (encoder): Sequential(
    (0): ZeroPad2d((7, 8, 7, 8))
    (1): Conv2d(1, 4, kernel_size=(16, 16), stride=(2, 2))
    (2): ELU(alpha=1.0)
    (3): ZeroPad2d((3, 4, 3, 4))
    (4): Conv2d(4, 8, kernel_size=(8, 8), stride=(2, 2))
    (5): ELU(alpha=1.0)
    (6): ZeroPad2d((1, 2, 1, 2))
    (7): Conv2d(8, 16, kernel_size=(4, 4), stride=(2, 2))
    (8): ELU(alpha=1.0)
    (9): ZeroPad2d((0, 1, 0, 1))
    (10): Conv2d(16, 32, kernel_size=(2, 2), stride=(2, 2))
    (11): ELU(alpha=1.0)
    (12): ZeroPad2d((0, 0, 0, 0))
    (13): Conv2d(32, 64, kernel_size=(1, 1), stride=(2, 2))
    (14): ELU(alpha=1.0)
    (15): Flatten(start_dim=1, end_dim=-1)
    (16): Linear(in_features=256, out_features=8, bias=True)
    (17): ELU(alpha=1.0)
  )
  (pnode): ODENet(
    (odenet): Sequential(
      (0): Linear(in_features=10, out_features=50, bias=True)
      (1): ELU(alpha=1.0)
      (2): Linear(in_features=50, out_features=50, bias=True)
      (3): ELU(alpha=1.0)
      (4): Linear(in_features=50, out_features=8, bias=True)
    )
  )
  (decoder_mlp): Sequential(
    (0): Linear(in_features=8, out_features=256, bias=True)
    (1): ELU(alpha=1.0)
  )
  (decoder_conv): Sequential(
    (0): ConvTranspose2d(64, 32, kernel_size=(4, 4), stride=(2, 2), padding=(1, 1))
    (1): ELU(alpha=1.0)
    (2): ConvTranspose2d(32, 16, kernel_size=(4, 4), stride=(2, 2), padding=(1, 1))
    (3): ELU(alpha=1.0)
    (4): ConvTranspose2d(16, 8, kernel_size=(8, 8), stride=(2, 2), padding=(3, 3))
    (5): ELU(alpha=1.0)
    (6): ConvTranspose2d(8, 4, kernel_size=(16, 16), stride=(2, 2), padding=(7, 7))
    (7): ELU(alpha=1.0)
    (8): ConvTranspose2d(4, 1, kernel_size=(16, 16), stride=(2, 2), padding=(7, 7))
    (9): ELU(alpha=1.0)
  )
)
Number of parameters: 75637
{'niters': 1000, 'lr': 0.01, 'save': 'experiments/', 'load': None, 'r': 1991, 'node-layers': 2, 'mlp-layers': 1, 'latents': 8, 'units': 50, 'test_mode': 't2p1', 'resize_dims': (32, 128), 'param_scaling': [1, 1]}
Checkpoint Path
experiments/experiment_68649.ckpt
Input Dim: 
4096
Param Dim: 
2
Latent Dim: 
8
cpu
/home/ajivani/WLROM_new/WhiteLight
PNODE_Conv(
  (encoder): Sequential(
    (0): ZeroPad2d((7, 8, 7, 8))
    (1): Conv2d(1, 4, kernel_size=(16, 16), stride=(2, 2))
    (2): ELU(alpha=1.0)
    (3): ZeroPad2d((3, 4, 3, 4))
    (4): Conv2d(4, 8, kernel_size=(8, 8), stride=(2, 2))
    (5): ELU(alpha=1.0)
    (6): ZeroPad2d((1, 2, 1, 2))
    (7): Conv2d(8, 16, kernel_size=(4, 4), stride=(2, 2))
    (8): ELU(alpha=1.0)
    (9): ZeroPad2d((0, 1, 0, 1))
    (10): Conv2d(16, 32, kernel_size=(2, 2), stride=(2, 2))
    (11): ELU(alpha=1.0)
    (12): ZeroPad2d((0, 0, 0, 0))
    (13): Conv2d(32, 64, kernel_size=(1, 1), stride=(2, 2))
    (14): ELU(alpha=1.0)
    (15): Flatten(start_dim=1, end_dim=-1)
    (16): Linear(in_features=256, out_features=8, bias=True)
    (17): ELU(alpha=1.0)
  )
  (pnode): ODENet(
    (odenet): Sequential(
      (0): Linear(in_features=10, out_features=50, bias=True)
      (1): ELU(alpha=1.0)
      (2): Linear(in_features=50, out_features=50, bias=True)
      (3): ELU(alpha=1.0)
      (4): Linear(in_features=50, out_features=8, bias=True)
    )
  )
  (decoder_mlp): Sequential(
    (0): Linear(in_features=8, out_features=256, bias=True)
    (1): ELU(alpha=1.0)
  )
  (decoder_conv): Sequential(
    (0): ConvTranspose2d(64, 32, kernel_size=(4, 4), stride=(2, 2), padding=(1, 1))
    (1): ELU(alpha=1.0)
    (2): ConvTranspose2d(32, 16, kernel_size=(4, 4), stride=(2, 2), padding=(1, 1))
    (3): ELU(alpha=1.0)
    (4): ConvTranspose2d(16, 8, kernel_size=(8, 8), stride=(2, 2), padding=(3, 3))
    (5): ELU(alpha=1.0)
    (6): ConvTranspose2d(8, 4, kernel_size=(16, 16), stride=(2, 2), padding=(7, 7))
    (7): ELU(alpha=1.0)
    (8): ConvTranspose2d(4, 1, kernel_size=(16, 16), stride=(2, 2), padding=(7, 7))
    (9): ELU(alpha=1.0)
  )
)
Number of parameters: 75637
{'niters': 1000, 'lr': 0.01, 'save': 'experiments/', 'load': None, 'r': 1991, 'node-layers': 2, 'mlp-layers': 1, 'latents': 8, 'units': 50, 'test_mode': 't2p1', 'resize_dims': (32, 128), 'param_scaling': [1, 1]}
Checkpoint Path
experiments/experiment_64987.ckpt
Input Dim: 
4096
Param Dim: 
2
Latent Dim: 
8
cpu
/home/ajivani/WLROM_new/WhiteLight
PNODE_Conv(
  (encoder): Sequential(
    (0): ZeroPad2d((7, 8, 7, 8))
    (1): Conv2d(1, 4, kernel_size=(16, 16), stride=(2, 2))
    (2): ELU(alpha=1.0)
    (3): ZeroPad2d((3, 4, 3, 4))
    (4): Conv2d(4, 8, kernel_size=(8, 8), stride=(2, 2))
    (5): ELU(alpha=1.0)
    (6): ZeroPad2d((1, 2, 1, 2))
    (7): Conv2d(8, 16, kernel_size=(4, 4), stride=(2, 2))
    (8): ELU(alpha=1.0)
    (9): ZeroPad2d((0, 1, 0, 1))
    (10): Conv2d(16, 32, kernel_size=(2, 2), stride=(2, 2))
    (11): ELU(alpha=1.0)
    (12): ZeroPad2d((0, 0, 0, 0))
    (13): Conv2d(32, 64, kernel_size=(1, 1), stride=(2, 2))
    (14): ELU(alpha=1.0)
    (15): Flatten(start_dim=1, end_dim=-1)
    (16): Linear(in_features=256, out_features=8, bias=True)
    (17): ELU(alpha=1.0)
  )
  (pnode): ODENet(
    (odenet): Sequential(
      (0): Linear(in_features=10, out_features=50, bias=True)
      (1): ELU(alpha=1.0)
      (2): Linear(in_features=50, out_features=50, bias=True)
      (3): ELU(alpha=1.0)
      (4): Linear(in_features=50, out_features=8, bias=True)
    )
  )
  (decoder_mlp): Sequential(
    (0): Linear(in_features=8, out_features=256, bias=True)
    (1): ELU(alpha=1.0)
  )
  (decoder_conv): Sequential(
    (0): ConvTranspose2d(64, 32, kernel_size=(4, 4), stride=(2, 2), padding=(1, 1))
    (1): ELU(alpha=1.0)
    (2): ConvTranspose2d(32, 16, kernel_size=(4, 4), stride=(2, 2), padding=(1, 1))
    (3): ELU(alpha=1.0)
    (4): ConvTranspose2d(16, 8, kernel_size=(8, 8), stride=(2, 2), padding=(3, 3))
    (5): ELU(alpha=1.0)
    (6): ConvTranspose2d(8, 4, kernel_size=(16, 16), stride=(2, 2), padding=(7, 7))
    (7): ELU(alpha=1.0)
    (8): ConvTranspose2d(4, 1, kernel_size=(16, 16), stride=(2, 2), padding=(7, 7))
    (9): ELU(alpha=1.0)
  )
)
Number of parameters: 75637
{'niters': 1000, 'lr': 0.01, 'save': 'experiments/', 'load': None, 'r': 1991, 'node-layers': 2, 'mlp-layers': 1, 'latents': 8, 'units': 50, 'test_mode': 't2p1', 'resize_dims': (32, 128), 'param_scaling': [1, 1]}
Checkpoint Path
experiments/experiment_21325.ckpt
Input Dim: 
4096
Param Dim: 
2
Latent Dim: 
8
cpu
/home/ajivani/WLROM_new/WhiteLight
/home/ajivani/WLROM_new/WhiteLight
PNODE_Conv(
  (encoder): Sequential(
    (0): ZeroPad2d((7, 8, 7, 8))
    (1): Conv2d(1, 4, kernel_size=(16, 16), stride=(2, 2))
    (2): ELU(alpha=1.0)
    (3): ZeroPad2d((3, 4, 3, 4))
    (4): Conv2d(4, 8, kernel_size=(8, 8), stride=(2, 2))
    (5): ELU(alpha=1.0)
    (6): ZeroPad2d((1, 2, 1, 2))
    (7): Conv2d(8, 16, kernel_size=(4, 4), stride=(2, 2))
    (8): ELU(alpha=1.0)
    (9): ZeroPad2d((0, 1, 0, 1))
    (10): Conv2d(16, 32, kernel_size=(2, 2), stride=(2, 2))
    (11): ELU(alpha=1.0)
    (12): ZeroPad2d((0, 0, 0, 0))
    (13): Conv2d(32, 64, kernel_size=(1, 1), stride=(2, 2))
    (14): ELU(alpha=1.0)
    (15): Flatten(start_dim=1, end_dim=-1)
    (16): Linear(in_features=256, out_features=8, bias=True)
    (17): ELU(alpha=1.0)
  )
  (pnode): ODENet(
    (odenet): Sequential(
      (0): Linear(in_features=10, out_features=50, bias=True)
      (1): ELU(alpha=1.0)
      (2): Linear(in_features=50, out_features=50, bias=True)
      (3): ELU(alpha=1.0)
      (4): Linear(in_features=50, out_features=8, bias=True)
    )
  )
  (decoder_mlp): Sequential(
    (0): Linear(in_features=8, out_features=256, bias=True)
    (1): ELU(alpha=1.0)
  )
  (decoder_conv): Sequential(
    (0): ConvTranspose2d(64, 32, kernel_size=(4, 4), stride=(2, 2), padding=(1, 1))
    (1): ELU(alpha=1.0)
    (2): ConvTranspose2d(32, 16, kernel_size=(4, 4), stride=(2, 2), padding=(1, 1))
    (3): ELU(alpha=1.0)
    (4): ConvTranspose2d(16, 8, kernel_size=(8, 8), stride=(2, 2), padding=(3, 3))
    (5): ELU(alpha=1.0)
    (6): ConvTranspose2d(8, 4, kernel_size=(16, 16), stride=(2, 2), padding=(7, 7))
    (7): ELU(alpha=1.0)
    (8): ConvTranspose2d(4, 1, kernel_size=(16, 16), stride=(2, 2), padding=(7, 7))
    (9): ELU(alpha=1.0)
  )
)
PNODE_Conv(
  (encoder): Sequential(
    (0): ZeroPad2d((7, 8, 7, 8))
    (1): Conv2d(1, 4, kernel_size=(16, 16), stride=(2, 2))
    (2): ELU(alpha=1.0)
    (3): ZeroPad2d((3, 4, 3, 4))
    (4): Conv2d(4, 8, kernel_size=(8, 8), stride=(2, 2))
    (5): ELU(alpha=1.0)
    (6): ZeroPad2d((1, 2, 1, 2))
    (7): Conv2d(8, 16, kernel_size=(4, 4), stride=(2, 2))
    (8): ELU(alpha=1.0)
    (9): ZeroPad2d((0, 1, 0, 1))
    (10): Conv2d(16, 32, kernel_size=(2, 2), stride=(2, 2))
    (11): ELU(alpha=1.0)
    (12): ZeroPad2d((0, 0, 0, 0))
    (13): Conv2d(32, 64, kernel_size=(1, 1), stride=(2, 2))
    (14): ELU(alpha=1.0)
    (15): Flatten(start_dim=1, end_dim=-1)
    (16): Linear(in_features=256, out_features=8, bias=True)
    (17): ELU(alpha=1.0)
  )
  (pnode): ODENet(
    (odenet): Sequential(
      (0): Linear(in_features=10, out_features=50, bias=True)
      (1): ELU(alpha=1.0)
      (2): Linear(in_features=50, out_features=50, bias=True)
      (3): ELU(alpha=1.0)
      (4): Linear(in_features=50, out_features=8, bias=True)
    )
  )
  (decoder_mlp): Sequential(
    (0): Linear(in_features=8, out_features=256, bias=True)
    (1): ELU(alpha=1.0)
  )
  (decoder_conv): Sequential(
    (0): ConvTranspose2d(64, 32, kernel_size=(4, 4), stride=(2, 2), padding=(1, 1))
    (1): ELU(alpha=1.0)
    (2): ConvTranspose2d(32, 16, kernel_size=(4, 4), stride=(2, 2), padding=(1, 1))
    (3): ELU(alpha=1.0)
    (4): ConvTranspose2d(16, 8, kernel_size=(8, 8), stride=(2, 2), padding=(3, 3))
    (5): ELU(alpha=1.0)
    (6): ConvTranspose2d(8, 4, kernel_size=(16, 16), stride=(2, 2), padding=(7, 7))
    (7): ELU(alpha=1.0)
    (8): ConvTranspose2d(4, 1, kernel_size=(16, 16), stride=(2, 2), padding=(7, 7))
    (9): ELU(alpha=1.0)
  )
)
Number of parameters: 75637
Number of parameters: 75637
{'niters': 1000, 'lr': 0.01, 'save': 'experiments/', 'load': None, 'r': 1991, 'node-layers': 2, 'mlp-layers': 1, 'latents': 8, 'units': 50, 'test_mode': 't2p1', 'resize_dims': (32, 128), 'param_scaling': [1, 1]}
{'niters': 1000, 'lr': 0.01, 'save': 'experiments/', 'load': None, 'r': 1991, 'node-layers': 2, 'mlp-layers': 1, 'latents': 8, 'units': 50, 'test_mode': 't2p1', 'resize_dims': (32, 128), 'param_scaling': [1, 1]}
Checkpoint Path
Checkpoint Path
experiments/experiment_67848.ckpt
experiments/experiment_67848.ckpt
Input Dim: 
Input Dim: 
4096
4096
Param Dim: 
Param Dim: 
2
2
Latent Dim: 
Latent Dim: 
8
8
cpu
cpu
/home/ajivani/WLROM_new/WhiteLight
PNODE_Conv(
  (encoder): Sequential(
    (0): ZeroPad2d((7, 8, 7, 8))
    (1): Conv2d(1, 4, kernel_size=(16, 16), stride=(2, 2))
    (2): ELU(alpha=1.0)
    (3): ZeroPad2d((3, 4, 3, 4))
    (4): Conv2d(4, 8, kernel_size=(8, 8), stride=(2, 2))
    (5): ELU(alpha=1.0)
    (6): ZeroPad2d((1, 2, 1, 2))
    (7): Conv2d(8, 16, kernel_size=(4, 4), stride=(2, 2))
    (8): ELU(alpha=1.0)
    (9): ZeroPad2d((0, 1, 0, 1))
    (10): Conv2d(16, 32, kernel_size=(2, 2), stride=(2, 2))
    (11): ELU(alpha=1.0)
    (12): ZeroPad2d((0, 0, 0, 0))
    (13): Conv2d(32, 64, kernel_size=(1, 1), stride=(2, 2))
    (14): ELU(alpha=1.0)
    (15): Flatten(start_dim=1, end_dim=-1)
    (16): Linear(in_features=256, out_features=8, bias=True)
    (17): ELU(alpha=1.0)
  )
  (pnode): ODENet(
    (odenet): Sequential(
      (0): Linear(in_features=10, out_features=50, bias=True)
      (1): ELU(alpha=1.0)
      (2): Linear(in_features=50, out_features=50, bias=True)
      (3): ELU(alpha=1.0)
      (4): Linear(in_features=50, out_features=8, bias=True)
    )
  )
  (decoder_mlp): Sequential(
    (0): Linear(in_features=8, out_features=256, bias=True)
    (1): ELU(alpha=1.0)
  )
  (decoder_conv): Sequential(
    (0): ConvTranspose2d(64, 32, kernel_size=(4, 4), stride=(2, 2), padding=(1, 1))
    (1): ELU(alpha=1.0)
    (2): ConvTranspose2d(32, 16, kernel_size=(4, 4), stride=(2, 2), padding=(1, 1))
    (3): ELU(alpha=1.0)
    (4): ConvTranspose2d(16, 8, kernel_size=(8, 8), stride=(2, 2), padding=(3, 3))
    (5): ELU(alpha=1.0)
    (6): ConvTranspose2d(8, 4, kernel_size=(16, 16), stride=(2, 2), padding=(7, 7))
    (7): ELU(alpha=1.0)
    (8): ConvTranspose2d(4, 1, kernel_size=(16, 16), stride=(2, 2), padding=(7, 7))
    (9): ELU(alpha=1.0)
  )
)
Number of parameters: 75637
{'niters': 1000, 'lr': 0.01, 'save': 'experiments/', 'load': None, 'r': 1991, 'node-layers': 2, 'mlp-layers': 1, 'latents': 8, 'units': 50, 'test_mode': 't2p1', 'resize_dims': (32, 128), 'param_scaling': [1, 1]}
Checkpoint Path
experiments/experiment_11871.ckpt
Input Dim: 
4096
Param Dim: 
2
Latent Dim: 
8
cpu
/home/ajivani/WLROM_new/WhiteLight
PNODE_Conv(
  (encoder): Sequential(
    (0): ZeroPad2d((7, 8, 7, 8))
    (1): Conv2d(1, 4, kernel_size=(16, 16), stride=(2, 2))
    (2): ELU(alpha=1.0)
    (3): ZeroPad2d((3, 4, 3, 4))
    (4): Conv2d(4, 8, kernel_size=(8, 8), stride=(2, 2))
    (5): ELU(alpha=1.0)
    (6): ZeroPad2d((1, 2, 1, 2))
    (7): Conv2d(8, 16, kernel_size=(4, 4), stride=(2, 2))
    (8): ELU(alpha=1.0)
    (9): ZeroPad2d((0, 1, 0, 1))
    (10): Conv2d(16, 32, kernel_size=(2, 2), stride=(2, 2))
    (11): ELU(alpha=1.0)
    (12): ZeroPad2d((0, 0, 0, 0))
    (13): Conv2d(32, 64, kernel_size=(1, 1), stride=(2, 2))
    (14): ELU(alpha=1.0)
    (15): Flatten(start_dim=1, end_dim=-1)
    (16): Linear(in_features=256, out_features=8, bias=True)
    (17): ELU(alpha=1.0)
  )
  (pnode): ODENet(
    (odenet): Sequential(
      (0): Linear(in_features=10, out_features=50, bias=True)
      (1): ELU(alpha=1.0)
      (2): Linear(in_features=50, out_features=50, bias=True)
      (3): ELU(alpha=1.0)
      (4): Linear(in_features=50, out_features=8, bias=True)
    )
  )
  (decoder_mlp): Sequential(
    (0): Linear(in_features=8, out_features=256, bias=True)
    (1): ELU(alpha=1.0)
  )
  (decoder_conv): Sequential(
    (0): ConvTranspose2d(64, 32, kernel_size=(4, 4), stride=(2, 2), padding=(1, 1))
    (1): ELU(alpha=1.0)
    (2): ConvTranspose2d(32, 16, kernel_size=(4, 4), stride=(2, 2), padding=(1, 1))
    (3): ELU(alpha=1.0)
    (4): ConvTranspose2d(16, 8, kernel_size=(8, 8), stride=(2, 2), padding=(3, 3))
    (5): ELU(alpha=1.0)
    (6): ConvTranspose2d(8, 4, kernel_size=(16, 16), stride=(2, 2), padding=(7, 7))
    (7): ELU(alpha=1.0)
    (8): ConvTranspose2d(4, 1, kernel_size=(16, 16), stride=(2, 2), padding=(7, 7))
    (9): ELU(alpha=1.0)
  )
)
Number of parameters: 75637
{'niters': 1000, 'lr': 0.01, 'save': 'experiments/', 'load': None, 'r': 1991, 'node-layers': 2, 'mlp-layers': 1, 'latents': 8, 'units': 50, 'test_mode': 't2p1', 'resize_dims': (32, 128), 'param_scaling': [1, 1]}
Checkpoint Path
experiments/experiment_4777.ckpt
Input Dim: 
4096
Param Dim: 
2
Latent Dim: 
8
cpu
Epoch 0001|Val loss|Loss 2.387035e-01|Train loss1.029569e-01|LR 0.01000|
/home/ajivani/WLROM_new/WhiteLight
PNODE_Conv(
  (encoder): Sequential(
    (0): ZeroPad2d((7, 8, 7, 8))
    (1): Conv2d(1, 4, kernel_size=(16, 16), stride=(2, 2))
    (2): ELU(alpha=1.0)
    (3): ZeroPad2d((3, 4, 3, 4))
    (4): Conv2d(4, 8, kernel_size=(8, 8), stride=(2, 2))
    (5): ELU(alpha=1.0)
    (6): ZeroPad2d((1, 2, 1, 2))
    (7): Conv2d(8, 16, kernel_size=(4, 4), stride=(2, 2))
    (8): ELU(alpha=1.0)
    (9): ZeroPad2d((0, 1, 0, 1))
    (10): Conv2d(16, 32, kernel_size=(2, 2), stride=(2, 2))
    (11): ELU(alpha=1.0)
    (12): ZeroPad2d((0, 0, 0, 0))
    (13): Conv2d(32, 64, kernel_size=(1, 1), stride=(2, 2))
    (14): ELU(alpha=1.0)
    (15): Flatten(start_dim=1, end_dim=-1)
    (16): Linear(in_features=256, out_features=8, bias=True)
    (17): ELU(alpha=1.0)
  )
  (pnode): ODENet(
    (odenet): Sequential(
      (0): Linear(in_features=10, out_features=50, bias=True)
      (1): ELU(alpha=1.0)
      (2): Linear(in_features=50, out_features=50, bias=True)
      (3): ELU(alpha=1.0)
      (4): Linear(in_features=50, out_features=8, bias=True)
    )
  )
  (decoder_mlp): Sequential(
    (0): Linear(in_features=8, out_features=256, bias=True)
    (1): ELU(alpha=1.0)
  )
  (decoder_conv): Sequential(
    (0): ConvTranspose2d(64, 32, kernel_size=(4, 4), stride=(2, 2), padding=(1, 1))
    (1): ELU(alpha=1.0)
    (2): ConvTranspose2d(32, 16, kernel_size=(4, 4), stride=(2, 2), padding=(1, 1))
    (3): ELU(alpha=1.0)
    (4): ConvTranspose2d(16, 8, kernel_size=(8, 8), stride=(2, 2), padding=(3, 3))
    (5): ELU(alpha=1.0)
    (6): ConvTranspose2d(8, 4, kernel_size=(16, 16), stride=(2, 2), padding=(7, 7))
    (7): ELU(alpha=1.0)
    (8): ConvTranspose2d(4, 1, kernel_size=(16, 16), stride=(2, 2), padding=(7, 7))
    (9): ELU(alpha=1.0)
  )
)
Number of parameters: 75637
{'niters': 1000, 'lr': 0.01, 'save': 'experiments/', 'load': None, 'r': 1991, 'node-layers': 2, 'mlp-layers': 1, 'latents': 8, 'units': 50, 'test_mode': 't2p1', 'resize_dims': (32, 128), 'param_scaling': [1, 1]}
Checkpoint Path
experiments/experiment_46347.ckpt
Input Dim: 
4096
Param Dim: 
2
Latent Dim: 
8
cpu
Epoch 0001|Val loss|Loss 8.517694e-02|Train loss1.322955e-01|LR 0.01000|
/home/ajivani/WLROM_new/WhiteLight
PNODE_Conv(
  (encoder): Sequential(
    (0): ZeroPad2d((7, 8, 7, 8))
    (1): Conv2d(1, 4, kernel_size=(16, 16), stride=(2, 2))
    (2): ELU(alpha=1.0)
    (3): ZeroPad2d((3, 4, 3, 4))
    (4): Conv2d(4, 8, kernel_size=(8, 8), stride=(2, 2))
    (5): ELU(alpha=1.0)
    (6): ZeroPad2d((1, 2, 1, 2))
    (7): Conv2d(8, 16, kernel_size=(4, 4), stride=(2, 2))
    (8): ELU(alpha=1.0)
    (9): ZeroPad2d((0, 1, 0, 1))
    (10): Conv2d(16, 32, kernel_size=(2, 2), stride=(2, 2))
    (11): ELU(alpha=1.0)
    (12): ZeroPad2d((0, 0, 0, 0))
    (13): Conv2d(32, 64, kernel_size=(1, 1), stride=(2, 2))
    (14): ELU(alpha=1.0)
    (15): Flatten(start_dim=1, end_dim=-1)
    (16): Linear(in_features=256, out_features=8, bias=True)
    (17): ELU(alpha=1.0)
  )
  (pnode): ODENet(
    (odenet): Sequential(
      (0): Linear(in_features=10, out_features=50, bias=True)
      (1): ELU(alpha=1.0)
      (2): Linear(in_features=50, out_features=50, bias=True)
      (3): ELU(alpha=1.0)
      (4): Linear(in_features=50, out_features=8, bias=True)
    )
  )
  (decoder_mlp): Sequential(
    (0): Linear(in_features=8, out_features=256, bias=True)
    (1): ELU(alpha=1.0)
  )
  (decoder_conv): Sequential(
    (0): ConvTranspose2d(64, 32, kernel_size=(4, 4), stride=(2, 2), padding=(1, 1))
    (1): ELU(alpha=1.0)
    (2): ConvTranspose2d(32, 16, kernel_size=(4, 4), stride=(2, 2), padding=(1, 1))
    (3): ELU(alpha=1.0)
    (4): ConvTranspose2d(16, 8, kernel_size=(8, 8), stride=(2, 2), padding=(3, 3))
    (5): ELU(alpha=1.0)
    (6): ConvTranspose2d(8, 4, kernel_size=(16, 16), stride=(2, 2), padding=(7, 7))
    (7): ELU(alpha=1.0)
    (8): ConvTranspose2d(4, 1, kernel_size=(16, 16), stride=(2, 2), padding=(7, 7))
    (9): ELU(alpha=1.0)
  )
)
Number of parameters: 75637
{'niters': 1000, 'lr': 0.01, 'save': 'experiments/', 'load': None, 'r': 1991, 'node-layers': 2, 'mlp-layers': 1, 'latents': 8, 'units': 50, 'test_mode': 't2p1', 'resize_dims': (32, 128), 'param_scaling': [1, 1]}
Checkpoint Path
experiments/experiment_46284.ckpt
Input Dim: 
4096
Param Dim: 
…
Epoch 0020|Val loss|Loss 9.104247e-02|Train loss9.123936e-02|LR 0.00000|
Epoch 0021|Val loss|Loss 9.104111e-02|Train loss9.123809e-02|LR 0.00000|
Epoch 0022|Val loss|Loss 9.103978e-02|Train loss9.123676e-02|LR 0.00000|
Epoch 0023|Val loss|Loss 9.103839e-02|Train loss9.123545e-02|LR 0.00000|
Epoch 0024|Val loss|Loss 9.103699e-02|Train loss9.123411e-02|LR 0.00000|
Epoch 0025|Val loss|Loss 9.103557e-02|Train loss9.123275e-02|LR 0.00000|
Epoch 0026|Val loss|Loss 9.103417e-02|Train loss9.123138e-02|LR 0.00000|
/home/ajivani/WLROM_new/WhiteLight
PNODE_Conv(
  (encoder): Sequential(
    (0): ZeroPad2d((7, 8, 7, 8))
    (1): Conv2d(1, 4, kernel_size=(16, 16), stride=(2, 2))
    (2): ELU(alpha=1.0)
    (3): ZeroPad2d((3, 4, 3, 4))
    (4): Conv2d(4, 8, kernel_size=(8, 8), stride=(2, 2))
    (5): ELU(alpha=1.0)
    (6): ZeroPad2d((1, 2, 1, 2))
    (7): Conv2d(8, 16, kernel_size=(4, 4), stride=(2, 2))
    (8): ELU(alpha=1.0)
    (9): ZeroPad2d((0, 1, 0, 1))
    (10): Conv2d(16, 32, kernel_size=(2, 2), stride=(2, 2))
    (11): ELU(alpha=1.0)
    (12): ZeroPad2d((0, 0, 0, 0))
    (13): Conv2d(32, 64, kernel_size=(1, 1), stride=(2, 2))
    (14): ELU(alpha=1.0)
    (15): Flatten(start_dim=1, end_dim=-1)
    (16): Linear(in_features=256, out_features=8, bias=True)
    (17): ELU(alpha=1.0)
  )
  (pnode): ODENet(
    (odenet): Sequential(
      (0): Linear(in_features=10, out_features=50, bias=True)
      (1): ELU(alpha=1.0)
      (2): Linear(in_features=50, out_features=50, bias=True)
      (3): ELU(alpha=1.0)
      (4): Linear(in_features=50, out_features=8, bias=True)
    )
  )
  (decoder_mlp): Sequential(
    (0): Linear(in_features=8, out_features=256, bias=True)
    (1): ELU(alpha=1.0)
  )
  (decoder_conv): Sequential(
    (0): ConvTranspose2d(64, 32, kernel_size=(4, 4), stride=(2, 2), padding=(1, 1))
    (1): ELU(alpha=1.0)
    (2): ConvTranspose2d(32, 16, kernel_size=(4, 4), stride=(2, 2), padding=(1, 1))
    (3): ELU(alpha=1.0)
    (4): ConvTranspose2d(16, 8, kernel_size=(8, 8), stride=(2, 2), padding=(3, 3))
    (5): ELU(alpha=1.0)
    (6): ConvTranspose2d(8, 4, kernel_size=(16, 16), stride=(2, 2), padding=(7, 7))
    (7): ELU(alpha=1.0)
    (8): ConvTranspose2d(4, 1, kernel_size=(16, 16), stride=(2, 2), padding=(7, 7))
    (9): ELU(alpha=1.0)
  )
)
Number of parameters: 75637
{'niters': 1000, 'lr': 0.01, 'save': 'experiments/', 'load': None, 'r': 1991, 'node-layers': 2, 'mlp-layers': 1, 'latents': 8, 'units': 50, 'test_mode': 't2p1', 'resize_dims': (32, 128), 'param_scaling': [1, 1]}
Checkpoint Path
experiments/experiment_85094.ckpt
Input Dim: 
4096
Param Dim: 
…
Epoch 2493|Val loss 3.644514e-04|Train loss 1.111160e-04|LR 0.00016|
Epoch 2494|Val loss 3.644312e-04|Train loss 1.110900e-04|LR 0.00016|
Epoch 2495|Val loss 3.644107e-04|Train loss 1.110639e-04|LR 0.00016|
Epoch 2496|Val loss 3.643905e-04|Train loss 1.110378e-04|LR 0.00016|
Epoch 2497|Val loss 3.643701e-04|Train loss 1.110117e-04|LR 0.00016|
Epoch 2498|Val loss 3.643495e-04|Train loss 1.109856e-04|LR 0.00016|
Epoch 2499|Val loss 3.643291e-04|Train loss 1.109595e-04|LR 0.00016|
Epoch 2500|Val loss 3.643087e-04|Train loss 1.109334e-04|LR 0.00016|
/home/ajivani/WLROM_new/WhiteLight
PNODE_Conv(
  (encoder): Sequential(
    (0): ZeroPad2d((7, 8, 7, 8))
    (1): Conv2d(1, 4, kernel_size=(16, 16), stride=(2, 2))
    (2): ELU(alpha=1.0)
    (3): ZeroPad2d((3, 4, 3, 4))
    (4): Conv2d(4, 8, kernel_size=(8, 8), stride=(2, 2))
    (5): ELU(alpha=1.0)
    (6): ZeroPad2d((1, 2, 1, 2))
    (7): Conv2d(8, 16, kernel_size=(4, 4), stride=(2, 2))
    (8): ELU(alpha=1.0)
    (9): ZeroPad2d((0, 1, 0, 1))
    (10): Conv2d(16, 32, kernel_size=(2, 2), stride=(2, 2))
    (11): ELU(alpha=1.0)
    (12): ZeroPad2d((0, 0, 0, 0))
    (13): Conv2d(32, 64, kernel_size=(1, 1), stride=(2, 2))
    (14): ELU(alpha=1.0)
    (15): Flatten(start_dim=1, end_dim=-1)
    (16): Linear(in_features=256, out_features=8, bias=True)
    (17): ELU(alpha=1.0)
  )
  (pnode): ODENet(
    (odenet): Sequential(
      (0): Linear(in_features=10, out_features=50, bias=True)
      (1): ELU(alpha=1.0)
      (2): Linear(in_features=50, out_features=50, bias=True)
      (3): ELU(alpha=1.0)
      (4): Linear(in_features=50, out_features=8, bias=True)
    )
  )
  (decoder_mlp): Sequential(
    (0): Linear(in_features=8, out_features=256, bias=True)
    (1): ELU(alpha=1.0)
  )
  (decoder_conv): Sequential(
    (0): ConvTranspose2d(64, 32, kernel_size=(4, 4), stride=(2, 2), padding=(1, 1))
    (1): ELU(alpha=1.0)
    (2): ConvTranspose2d(32, 16, kernel_size=(4, 4), stride=(2, 2), padding=(1, 1))
    (3): ELU(alpha=1.0)
    (4): ConvTranspose2d(16, 8, kernel_size=(8, 8), stride=(2, 2), padding=(3, 3))
    (5): ELU(alpha=1.0)
    (6): ConvTranspose2d(8, 4, kernel_size=(16, 16), stride=(2, 2), padding=(7, 7))
    (7): ELU(alpha=1.0)
    (8): ConvTranspose2d(4, 1, kernel_size=(16, 16), stride=(2, 2), padding=(7, 7))
    (9): ELU(alpha=1.0)
  )
)
Number of parameters: 75637
{'niters': 2500, 'lr': 0.01, 'save': 'experiments/', 'load': 14708, 'r': 1991, 'node-layers': 2, 'mlp-layers': 1, 'latents': 8, 'units': 50, 'test_mode': 't5p4', 'resize_dims': (32, 128), 'param_scaling': [50, 1]}
Checkpoint Path
experiments/experiment_14708.ckpt
Input Dim: 
4096
Param Dim: 
2
Latent Dim: 
8
cpu
/home/ajivani/WLROM_new/WhiteLight
/home/ajivani/WLROM_new/WhiteLight
PNODE_Conv(
  (encoder): Sequential(
    (0): ZeroPad2d((7, 8, 7, 8))
    (1): Conv2d(1, 4, kernel_size=(16, 16), stride=(2, 2))
    (2): ELU(alpha=1.0)
    (3): ZeroPad2d((3, 4, 3, 4))
    (4): Conv2d(4, 8, kernel_size=(8, 8), stride=(2, 2))
    (5): ELU(alpha=1.0)
    (6): ZeroPad2d((1, 2, 1, 2))
    (7): Conv2d(8, 16, kernel_size=(4, 4), stride=(2, 2))
    (8): ELU(alpha=1.0)
    (9): ZeroPad2d((0, 1, 0, 1))
    (10): Conv2d(16, 32, kernel_size=(2, 2), stride=(2, 2))
    (11): ELU(alpha=1.0)
    (12): ZeroPad2d((0, 0, 0, 0))
    (13): Conv2d(32, 64, kernel_size=(1, 1), stride=(2, 2))
    (14): ELU(alpha=1.0)
    (15): Flatten(start_dim=1, end_dim=-1)
    (16): Linear(in_features=256, out_features=8, bias=True)
    (17): ELU(alpha=1.0)
  )
  (pnode): ODENet(
    (odenet): Sequential(
      (0): Linear(in_features=10, out_features=50, bias=True)
      (1): ELU(alpha=1.0)
      (2): Linear(in_features=50, out_features=50, bias=True)
      (3): ELU(alpha=1.0)
      (4): Linear(in_features=50, out_features=8, bias=True)
    )
  )
  (decoder_mlp): Sequential(
    (0): Linear(in_features=8, out_features=256, bias=True)
    (1): ELU(alpha=1.0)
  )
  (decoder_conv): Sequential(
    (0): ConvTranspose2d(64, 32, kernel_size=(4, 4), stride=(2, 2), padding=(1, 1))
    (1): ELU(alpha=1.0)
    (2): ConvTranspose2d(32, 16, kernel_size=(4, 4), stride=(2, 2), padding=(1, 1))
    (3): ELU(alpha=1.0)
    (4): ConvTranspose2d(16, 8, kernel_size=(8, 8), stride=(2, 2), padding=(3, 3))
    (5): ELU(alpha=1.0)
    (6): ConvTranspose2d(8, 4, kernel_size=(16, 16), stride=(2, 2), padding=(7, 7))
    (7): ELU(alpha=1.0)
    (8): ConvTranspose2d(4, 1, kernel_size=(16, 16), stride=(2, 2), padding=(7, 7))
    (9): ELU(alpha=1.0)
  )
)
PNODE_Conv(
  (encoder): Sequential(
    (0): ZeroPad2d((7, 8, 7, 8))
    (1): Conv2d(1, 4, kernel_size=(16, 16), stride=(2, 2))
    (2): ELU(alpha=1.0)
    (3): ZeroPad2d((3, 4, 3, 4))
    (4): Conv2d(4, 8, kernel_size=(8, 8), stride=(2, 2))
    (5): ELU(alpha=1.0)
    (6): ZeroPad2d((1, 2, 1, 2))
    (7): Conv2d(8, 16, kernel_size=(4, 4), stride=(2, 2))
    (8): ELU(alpha=1.0)
    (9): ZeroPad2d((0, 1, 0, 1))
    (10): Conv2d(16, 32, kernel_size=(2, 2), stride=(2, 2))
    (11): ELU(alpha=1.0)
    (12): ZeroPad2d((0, 0, 0, 0))
    (13): Conv2d(32, 64, kernel_size=(1, 1), stride=(2, 2))
    (14): ELU(alpha=1.0)
    (15): Flatten(start_dim=1, end_dim=-1)
    (16): Linear(in_features=256, out_features=8, bias=True)
    (17): ELU(alpha=1.0)
  )
  (pnode): ODENet(
    (odenet): Sequential(
      (0): Linear(in_features=10, out_features=50, bias=True)
      (1): ELU(alpha=1.0)
      (2): Linear(in_features=50, out_features=50, bias=True)
      (3): ELU(alpha=1.0)
      (4): Linear(in_features=50, out_features=8, bias=True)
    )
  )
  (decoder_mlp): Sequential(
    (0): Linear(in_features=8, out_features=256, bias=True)
    (1): ELU(alpha=1.0)
  )
  (decoder_conv): Sequential(
    (0): ConvTranspose2d(64, 32, kernel_size=(4, 4), stride=(2, 2), padding=(1, 1))
    (1): ELU(alpha=1.0)
    (2): ConvTranspose2d(32, 16, kernel_size=(4, 4), stride=(2, 2), padding=(1, 1))
    (3): ELU(alpha=1.0)
    (4): ConvTranspose2d(16, 8, kernel_size=(8, 8), stride=(2, 2), padding=(3, 3))
    (5): ELU(alpha=1.0)
    (6): ConvTranspose2d(8, 4, kernel_size=(16, 16), stride=(2, 2), padding=(7, 7))
    (7): ELU(alpha=1.0)
    (8): ConvTranspose2d(4, 1, kernel_size=(16, 16), stride=(2, 2), padding=(7, 7))
    (9): ELU(alpha=1.0)
  )
)
Number of parameters: 75637
Number of parameters: 75637
{'niters': 2500, 'lr': 0.01, 'save': 'experiments/', 'load': 14708, 'r': 1991, 'node-layers': 2, 'mlp-layers': 1, 'latents': 8, 'units': 50, 'test_mode': 't5p4', 'resize_dims': (32, 128), 'param_scaling': [50, 1]}
{'niters': 2500, 'lr': 0.01, 'save': 'experiments/', 'load': 14708, 'r': 1991, 'node-layers': 2, 'mlp-layers': 1, 'latents': 8, 'units': 50, 'test_mode': 't5p4', 'resize_dims': (32, 128), 'param_scaling': [50, 1]}
…
{'niters': 2500, 'lr': 0.01, 'save': 'experiments/', 'load': None, 'r': 1991, 'node-layers': 2, 'mlp-layers': 1, 'latents': 8, 'units': 50, 'test_mode': 't5p4', 'resize_dims': (32, 128), 'param_scaling': [50, 1]}
Checkpoint Path
Checkpoint Path
Checkpoint Path
experiments/experiment_52524.ckpt
experiments/experiment_52524.ckpt
experiments/experiment_52524.ckpt
Input Dim: 
Input Dim: 
Input Dim: 
4096
4096
4096
Param Dim: 
Param Dim: 
Param Dim: 
2
2
2
Latent Dim: 
Latent Dim: 
Latent Dim: 
8
8
8
cuda:0
cuda:0
cuda:0
/home/ajivani/WLROM_new/WhiteLight
PNODE_Conv(
  (encoder): Sequential(
    (0): ZeroPad2d((7, 8, 7, 8))
    (1): Conv2d(1, 4, kernel_size=(16, 16), stride=(2, 2))
    (2): ELU(alpha=1.0)
    (3): ZeroPad2d((3, 4, 3, 4))
    (4): Conv2d(4, 8, kernel_size=(8, 8), stride=(2, 2))
    (5): ELU(alpha=1.0)
    (6): ZeroPad2d((1, 2, 1, 2))
    (7): Conv2d(8, 16, kernel_size=(4, 4), stride=(2, 2))
    (8): ELU(alpha=1.0)
    (9): ZeroPad2d((0, 1, 0, 1))
    (10): Conv2d(16, 32, kernel_size=(2, 2), stride=(2, 2))
    (11): ELU(alpha=1.0)
    (12): ZeroPad2d((0, 0, 0, 0))
    (13): Conv2d(32, 64, kernel_size=(1, 1), stride=(2, 2))
    (14): ELU(alpha=1.0)
    (15): Flatten(start_dim=1, end_dim=-1)
    (16): Linear(in_features=256, out_features=8, bias=True)
    (17): ELU(alpha=1.0)
  )
  (pnode): ODENet(
    (odenet): Sequential(
      (0): Linear(in_features=10, out_features=50, bias=True)
      (1): ELU(alpha=1.0)
      (2): Linear(in_features=50, out_features=50, bias=True)
      (3): ELU(alpha=1.0)
      (4): Linear(in_features=50, out_features=8, bias=True)
    )
  )
  (decoder_mlp): Sequential(
    (0): Linear(in_features=8, out_features=256, bias=True)
    (1): ELU(alpha=1.0)
  )
  (decoder_conv): Sequential(
    (0): ConvTranspose2d(64, 32, kernel_size=(4, 4), stride=(2, 2), padding=(1, 1))
    (1): ELU(alpha=1.0)
    (2): ConvTranspose2d(32, 16, kernel_size=(4, 4), stride=(2, 2), padding=(1, 1))
    (3): ELU(alpha=1.0)
    (4): ConvTranspose2d(16, 8, kernel_size=(8, 8), stride=(2, 2), padding=(3, 3))
    (5): ELU(alpha=1.0)
    (6): ConvTranspose2d(8, 4, kernel_size=(16, 16), stride=(2, 2), padding=(7, 7))
    (7): ELU(alpha=1.0)
    (8): ConvTranspose2d(4, 1, kernel_size=(16, 16), stride=(2, 2), padding=(7, 7))
    (9): ELU(alpha=1.0)
  )
)
Number of parameters: 75637
{'niters': 2500, 'lr': 0.01, 'save': 'experiments/', 'load': None, 'r': 1991, 'node-layers': 2, 'mlp-layers': 1, 'latents': 8, 'units': 50, 'test_mode': 't5p4', 'resize_dims': (32, 128), 'param_scaling': [50, 1]}
Checkpoint Path
experiments/experiment_71007.ckpt
Input Dim: 
4096
Param Dim: 
2
Latent Dim: 
8
cuda:0
/home/ajivani/WLROM_new/WhiteLight
PNODE_Conv(
  (encoder): Sequential(
    (0): ZeroPad2d((7, 8, 7, 8))
    (1): Conv2d(1, 4, kernel_size=(16, 16), stride=(2, 2))
    (2): ELU(alpha=1.0)
    (3): ZeroPad2d((3, 4, 3, 4))
    (4): Conv2d(4, 8, kernel_size=(8, 8), stride=(2, 2))
    (5): ELU(alpha=1.0)
    (6): ZeroPad2d((1, 2, 1, 2))
    (7): Conv2d(8, 16, kernel_size=(4, 4), stride=(2, 2))
    (8): ELU(alpha=1.0)
    (9): ZeroPad2d((0, 1, 0, 1))
    (10): Conv2d(16, 32, kernel_size=(2, 2), stride=(2, 2))
    (11): ELU(alpha=1.0)
    (12): ZeroPad2d((0, 0, 0, 0))
    (13): Conv2d(32, 64, kernel_size=(1, 1), stride=(2, 2))
    (14): ELU(alpha=1.0)
    (15): Flatten(start_dim=1, end_dim=-1)
    (16): Linear(in_features=256, out_features=8, bias=True)
    (17): ELU(alpha=1.0)
  )
  (pnode): ODENet(
    (odenet): Sequential(
      (0): Linear(in_features=10, out_features=50, bias=True)
      (1): ELU(alpha=1.0)
      (2): Linear(in_features=50, out_features=50, bias=True)
      (3): ELU(alpha=1.0)
      (4): Linear(in_features=50, out_features=8, bias=True)
    )
  )
  (decoder_mlp): Sequential(
    (0): Linear(in_features=8, out_features=256, bias=True)
    (1): ELU(alpha=1.0)
  )
  (decoder_conv): Sequential(
    (0): ConvTranspose2d(64, 32, kernel_size=(4, 4), stride=(2, 2), padding=(1, 1))
    (1): ELU(alpha=1.0)
    (2): ConvTranspose2d(32, 16, kernel_size=(4, 4), stride=(2, 2), padding=(1, 1))
    (3): ELU(alpha=1.0)
    (4): ConvTranspose2d(16, 8, kernel_size=(8, 8), stride=(2, 2), padding=(3, 3))
    (5): ELU(alpha=1.0)
    (6): ConvTranspose2d(8, 4, kernel_size=(16, 16), stride=(2, 2), padding=(7, 7))
    (7): ELU(alpha=1.0)
    (8): ConvTranspose2d(4, 1, kernel_size=(16, 16), stride=(2, 2), padding=(7, 7))
    (9): ELU(alpha=1.0)
  )
)
Number of parameters: 75637
{'niters': 2500, 'lr': 0.01, 'save': 'experiments/', 'load': None, 'r': 1991, 'node-layers': 2, 'mlp-layers': 1, 'latents': 8, 'units': 50, 'test_mode': 't5p4', 'resize_dims': (32, 128), 'param_scaling': [50, 1]}
Checkpoint Path
experiments/experiment_89620.ckpt
Input Dim: 
4096
Param Dim: 
2
Latent Dim: 
8
cuda:0
/home/ajivani/WLROM_new/WhiteLight
PNODE_Conv(
  (encoder): Sequential(
    (0): ZeroPad2d((7, 8, 7, 8))
    (1): Conv2d(1, 4, kernel_size=(16, 16), stride=(2, 2))
    (2): ELU(alpha=1.0)
    (3): ZeroPad2d((3, 4, 3, 4))
    (4): Conv2d(4, 8, kernel_size=(8, 8), stride=(2, 2))
    (5): ELU(alpha=1.0)
    (6): ZeroPad2d((1, 2, 1, 2))
    (7): Conv2d(8, 16, kernel_size=(4, 4), stride=(2, 2))
    (8): ELU(alpha=1.0)
    (9): ZeroPad2d((0, 1, 0, 1))
    (10): Conv2d(16, 32, kernel_size=(2, 2), stride=(2, 2))
    (11): ELU(alpha=1.0)
    (12): ZeroPad2d((0, 0, 0, 0))
    (13): Conv2d(32, 64, kernel_size=(1, 1), stride=(2, 2))
    (14): ELU(alpha=1.0)
    (15): Flatten(start_dim=1, end_dim=-1)
    (16): Linear(in_features=256, out_features=8, bias=True)
    (17): ELU(alpha=1.0)
  )
  (pnode): ODENet(
    (odenet): Sequential(
      (0): Linear(in_features=10, out_features=50, bias=True)
      (1): ELU(alpha=1.0)
      (2): Linear(in_features=50, out_features=50, bias=True)
      (3): ELU(alpha=1.0)
      (4): Linear(in_features=50, out_features=8, bias=True)
    )
  )
  (decoder_mlp): Sequential(
    (0): Linear(in_features=8, out_features=256, bias=True)
    (1): ELU(alpha=1.0)
  )
  (decoder_conv): Sequential(
    (0): ConvTranspose2d(64, 32, kernel_size=(4, 4), stride=(2, 2), padding=(1, 1))
    (1): ELU(alpha=1.0)
    (2): ConvTranspose2d(32, 16, kernel_size=(4, 4), stride=(2, 2), padding=(1, 1))
    (3): ELU(alpha=1.0)
    (4): ConvTranspose2d(16, 8, kernel_size=(8, 8), stride=(2, 2), padding=(3, 3))
    (5): ELU(alpha=1.0)
    (6): ConvTranspose2d(8, 4, kernel_size=(16, 16), stride=(2, 2), padding=(7, 7))
    (7): ELU(alpha=1.0)
    (8): ConvTranspose2d(4, 1, kernel_size=(16, 16), stride=(2, 2), padding=(7, 7))
    (9): ELU(alpha=1.0)
  )
)
Number of parameters: 75637
{'niters': 2500, 'lr': 0.01, 'save': 'experiments/', 'load': None, 'r': 1991, 'node-layers': 2, 'mlp-layers': 1, 'latents': 8, 'units': 50, 'test_mode': 't5p4', 'resize_dims': (32, 128), 'param_scaling': [50, 1]}
Checkpoint Path
experiments/experiment_98255.ckpt
Input Dim: 
4096
Param Dim: 
2
Latent Dim: 
8
cuda:0
/home/ajivani/WLROM_new/WhiteLight
PNODE_Conv(
  (encoder): Sequential(
    (0): ZeroPad2d((7, 8, 7, 8))
    (1): Conv2d(1, 4, kernel_size=(16, 16), stride=(2, 2))
    (2): ELU(alpha=1.0)
    (3): ZeroPad2d((3, 4, 3, 4))
    (4): Conv2d(4, 8, kernel_size=(8, 8), stride=(2, 2))
    (5): ELU(alpha=1.0)
    (6): ZeroPad2d((1, 2, 1, 2))
    (7): Conv2d(8, 16, kernel_size=(4, 4), stride=(2, 2))
    (8): ELU(alpha=1.0)
    (9): ZeroPad2d((0, 1, 0, 1))
    (10): Conv2d(16, 32, kernel_size=(2, 2), stride=(2, 2))
    (11): ELU(alpha=1.0)
    (12): ZeroPad2d((0, 0, 0, 0))
    (13): Conv2d(32, 64, kernel_size=(1, 1), stride=(2, 2))
    (14): ELU(alpha=1.0)
    (15): Flatten(start_dim=1, end_dim=-1)
    (16): Linear(in_features=256, out_features=8, bias=True)
    (17): ELU(alpha=1.0)
  )
  (pnode): ODENet(
    (odenet): Sequential(
      (0): Linear(in_features=10, out_features=50, bias=True)
      (1): ELU(alpha=1.0)
      (2): Linear(in_features=50, out_features=50, bias=True)
      (3): ELU(alpha=1.0)
      (4): Linear(in_features=50, out_features=8, bias=True)
    )
  )
  (decoder_mlp): Sequential(
    (0): Linear(in_features=8, out_features=256, bias=True)
    (1): ELU(alpha=1.0)
  )
  (decoder_conv): Sequential(
    (0): ConvTranspose2d(64, 32, kernel_size=(4, 4), stride=(2, 2), padding=(1, 1))
    (1): ELU(alpha=1.0)
    (2): ConvTranspose2d(32, 16, kernel_size=(4, 4), stride=(2, 2), padding=(1, 1))
    (3): ELU(alpha=1.0)
    (4): ConvTranspose2d(16, 8, kernel_size=(8, 8), stride=(2, 2), padding=(3, 3))
    (5): ELU(alpha=1.0)
    (6): ConvTranspose2d(8, 4, kernel_size=(16, 16), stride=(2, 2), padding=(7, 7))
    (7): ELU(alpha=1.0)
    (8): ConvTranspose2d(4, 1, kernel_size=(16, 16), stride=(2, 2), padding=(7, 7))
    (9): ELU(alpha=1.0)
  )
)
Number of parameters: 75637
{'niters': 2500, 'lr': 0.01, 'save': 'experiments/', 'load': None, 'r': 1991, 'node-layers': 2, 'mlp-layers': 1, 'latents': 8, 'units': 50, 'test_mode': 't5p4', 'resize_dims': (32, 128), 'param_scaling': [50, 1]}
Checkpoint Path
experiments/experiment_7106.ckpt
Input Dim: 
4096
Param Dim: 
…
Epoch 0321|Val loss 4.600684e-04|Train loss 2.187521e-04|LR 0.01000|
Epoch 0322|Val loss 4.598816e-04|Train loss 2.200537e-04|LR 0.01000|
Epoch 0323|Val loss 4.556125e-04|Train loss 2.205129e-04|LR 0.01000|
Epoch 0324|Val loss 4.581489e-04|Train loss 2.147920e-04|LR 0.01000|
Epoch 0325|Val loss 4.507855e-04|Train loss 2.189356e-04|LR 0.01000|
Epoch 0326|Val loss 4.528718e-04|Train loss 2.141520e-04|LR 0.01000|
Epoch 0327|Val loss 4.530003e-04|Train loss 2.140661e-04|LR 0.01000|
Epoch 0328|Val loss 4.465489e-04|Train loss 2.143403e-04|LR 0.01000|
/home/ajivani/WLROM_new/WhiteLight
PNODE_Conv(
  (encoder): Sequential(
    (0): ZeroPad2d((7, 8, 7, 8))
    (1): Conv2d(1, 4, kernel_size=(16, 16), stride=(2, 2))
    (2): ELU(alpha=1.0)
    (3): ZeroPad2d((3, 4, 3, 4))
    (4): Conv2d(4, 8, kernel_size=(8, 8), stride=(2, 2))
    (5): ELU(alpha=1.0)
    (6): ZeroPad2d((1, 2, 1, 2))
    (7): Conv2d(8, 16, kernel_size=(4, 4), stride=(2, 2))
    (8): ELU(alpha=1.0)
    (9): ZeroPad2d((0, 1, 0, 1))
    (10): Conv2d(16, 32, kernel_size=(2, 2), stride=(2, 2))
    (11): ELU(alpha=1.0)
    (12): ZeroPad2d((0, 0, 0, 0))
    (13): Conv2d(32, 64, kernel_size=(1, 1), stride=(2, 2))
    (14): ELU(alpha=1.0)
    (15): Flatten(start_dim=1, end_dim=-1)
    (16): Linear(in_features=256, out_features=8, bias=True)
    (17): ELU(alpha=1.0)
  )
  (pnode): ODENet(
    (odenet): Sequential(
      (0): Linear(in_features=10, out_features=50, bias=True)
      (1): ELU(alpha=1.0)
      (2): Linear(in_features=50, out_features=50, bias=True)
      (3): ELU(alpha=1.0)
      (4): Linear(in_features=50, out_features=8, bias=True)
    )
  )
  (decoder_mlp): Sequential(
    (0): Linear(in_features=8, out_features=256, bias=True)
    (1): ELU(alpha=1.0)
  )
  (decoder_conv): Sequential(
    (0): ConvTranspose2d(64, 32, kernel_size=(4, 4), stride=(2, 2), padding=(1, 1))
    (1): ELU(alpha=1.0)
    (2): ConvTranspose2d(32, 16, kernel_size=(4, 4), stride=(2, 2), padding=(1, 1))
    (3): ELU(alpha=1.0)
    (4): ConvTranspose2d(16, 8, kernel_size=(8, 8), stride=(2, 2), padding=(3, 3))
    (5): ELU(alpha=1.0)
    (6): ConvTranspose2d(8, 4, kernel_size=(16, 16), stride=(2, 2), padding=(7, 7))
    (7): ELU(alpha=1.0)
    (8): ConvTranspose2d(4, 1, kernel_size=(16, 16), stride=(2, 2), padding=(7, 7))
    (9): ELU(alpha=1.0)
  )
)
Number of parameters: 75637
{'niters': 4000, 'lr': 0.01, 'save': 'experiments/', 'load': None, 'r': 1991, 'node-layers': 2, 'mlp-layers': 1, 'latents': 8, 'units': 50, 'test_mode': 't5p4', 'resize_dims': (32, 128), 'param_scaling': [50, 1], 'warm_start': None}
Checkpoint Path
experiments/experiment_68217.ckpt
Input Dim: 
4096
Param Dim: 
2
Latent Dim: 
8
cuda:0
/home/ajivani/WLROM_new/WhiteLight
PNODE_Conv(
  (encoder): Sequential(
    (0): ZeroPad2d((7, 8, 7, 8))
    (1): Conv2d(1, 4, kernel_size=(16, 16), stride=(2, 2))
    (2): ELU(alpha=1.0)
    (3): ZeroPad2d((3, 4, 3, 4))
    (4): Conv2d(4, 8, kernel_size=(8, 8), stride=(2, 2))
    (5): ELU(alpha=1.0)
    (6): ZeroPad2d((1, 2, 1, 2))
    (7): Conv2d(8, 16, kernel_size=(4, 4), stride=(2, 2))
    (8): ELU(alpha=1.0)
    (9): ZeroPad2d((0, 1, 0, 1))
    (10): Conv2d(16, 32, kernel_size=(2, 2), stride=(2, 2))
    (11): ELU(alpha=1.0)
    (12): ZeroPad2d((0, 0, 0, 0))
    (13): Conv2d(32, 64, kernel_size=(1, 1), stride=(2, 2))
    (14): ELU(alpha=1.0)
    (15): Flatten(start_dim=1, end_dim=-1)
    (16): Linear(in_features=256, out_features=8, bias=True)
    (17): ELU(alpha=1.0)
  )
  (pnode): ODENet(
    (odenet): Sequential(
      (0): Linear(in_features=10, out_features=50, bias=True)
      (1): ELU(alpha=1.0)
      (2): Linear(in_features=50, out_features=50, bias=True)
      (3): ELU(alpha=1.0)
      (4): Linear(in_features=50, out_features=8, bias=True)
    )
  )
  (decoder_mlp): Sequential(
    (0): Linear(in_features=8, out_features=256, bias=True)
    (1): ELU(alpha=1.0)
  )
  (decoder_conv): Sequential(
    (0): ConvTranspose2d(64, 32, kernel_size=(4, 4), stride=(2, 2), padding=(1, 1))
    (1): ELU(alpha=1.0)
    (2): ConvTranspose2d(32, 16, kernel_size=(4, 4), stride=(2, 2), padding=(1, 1))
    (3): ELU(alpha=1.0)
    (4): ConvTranspose2d(16, 8, kernel_size=(8, 8), stride=(2, 2), padding=(3, 3))
    (5): ELU(alpha=1.0)
    (6): ConvTranspose2d(8, 4, kernel_size=(16, 16), stride=(2, 2), padding=(7, 7))
    (7): ELU(alpha=1.0)
    (8): ConvTranspose2d(4, 1, kernel_size=(16, 16), stride=(2, 2), padding=(7, 7))
    (9): ELU(alpha=1.0)
  )
)
Number of parameters: 75637
{'niters': 4000, 'lr': 0.01, 'save': 'experiments/', 'load': None, 'r': 1991, 'node-layers': 2, 'mlp-layers': 1, 'latents': 8, 'units': 50, 'test_mode': 't5p4', 'resize_dims': (32, 128), 'param_scaling': [50, 1], 'warm_start': None}
Checkpoint Path
experiments/experiment_38931.ckpt
Input Dim: 
…
Epoch 3993|Val loss 2.452946e-04|Train loss 3.891640e-05|LR 0.00017|
Epoch 3994|Val loss 2.452772e-04|Train loss 3.890875e-05|LR 0.00017|
Epoch 3995|Val loss 2.452579e-04|Train loss 3.890106e-05|LR 0.00017|
Epoch 3996|Val loss 2.452394e-04|Train loss 3.889346e-05|LR 0.00017|
Epoch 3997|Val loss 2.452186e-04|Train loss 3.888576e-05|LR 0.00017|
Epoch 3998|Val loss 2.452008e-04|Train loss 3.887807e-05|LR 0.00017|
Epoch 3999|Val loss 2.451821e-04|Train loss 3.887039e-05|LR 0.00017|
Epoch 4000|Val loss 2.451630e-04|Train loss 3.886275e-05|LR 0.00017|
/home/ajivani/WLROM_new/WhiteLight
PNODE_Conv(
  (encoder): Sequential(
    (0): ZeroPad2d((7, 8, 7, 8))
    (1): Conv2d(1, 4, kernel_size=(16, 16), stride=(2, 2))
    (2): ELU(alpha=1.0)
    (3): ZeroPad2d((3, 4, 3, 4))
    (4): Conv2d(4, 8, kernel_size=(8, 8), stride=(2, 2))
    (5): ELU(alpha=1.0)
    (6): ZeroPad2d((1, 2, 1, 2))
    (7): Conv2d(8, 16, kernel_size=(4, 4), stride=(2, 2))
    (8): ELU(alpha=1.0)
    (9): ZeroPad2d((0, 1, 0, 1))
    (10): Conv2d(16, 32, kernel_size=(2, 2), stride=(2, 2))
    (11): ELU(alpha=1.0)
    (12): ZeroPad2d((0, 0, 0, 0))
    (13): Conv2d(32, 64, kernel_size=(1, 1), stride=(2, 2))
    (14): ELU(alpha=1.0)
    (15): Flatten(start_dim=1, end_dim=-1)
    (16): Linear(in_features=256, out_features=20, bias=True)
    (17): ELU(alpha=1.0)
  )
  (pnode): ODENet(
    (odenet): Sequential(
      (0): Linear(in_features=22, out_features=50, bias=True)
      (1): ELU(alpha=1.0)
      (2): Linear(in_features=50, out_features=50, bias=True)
      (3): ELU(alpha=1.0)
      (4): Linear(in_features=50, out_features=20, bias=True)
    )
  )
  (decoder_mlp): Sequential(
    (0): Linear(in_features=20, out_features=256, bias=True)
    (1): ELU(alpha=1.0)
  )
  (decoder_conv): Sequential(
    (0): ConvTranspose2d(64, 32, kernel_size=(4, 4), stride=(2, 2), padding=(1, 1))
    (1): ELU(alpha=1.0)
    (2): ConvTranspose2d(32, 16, kernel_size=(4, 4), stride=(2, 2), padding=(1, 1))
    (3): ELU(alpha=1.0)
    (4): ConvTranspose2d(16, 8, kernel_size=(8, 8), stride=(2, 2), padding=(3, 3))
    (5): ELU(alpha=1.0)
    (6): ConvTranspose2d(8, 4, kernel_size=(16, 16), stride=(2, 2), padding=(7, 7))
    (7): ELU(alpha=1.0)
    (8): ConvTranspose2d(4, 1, kernel_size=(16, 16), stride=(2, 2), padding=(7, 7))
    (9): ELU(alpha=1.0)
  )
)
Number of parameters: 83005
{'niters': 4000, 'lr': 0.01, 'save': 'experiments/', 'load': None, 'r': 1991, 'node-layers': 2, 'mlp-layers': 1, 'latents': 20, 'units': 50, 'test_mode': 't5p4', 'resize_dims': (32, 128), 'param_scaling': [1, 1], 'warm_start': 38931, 'do_warm_start': False}
Checkpoint Path
experiments/experiment_35791.ckpt
Input Dim: 
4096
Param Dim: 
2
Latent Dim: 
20
cuda:0
/home/ajivani/WLROM_new/WhiteLight
PNODE_Conv(
  (encoder): Sequential(
    (0): ZeroPad2d((7, 8, 7, 8))
    (1): Conv2d(1, 4, kernel_size=(16, 16), stride=(2, 2))
    (2): ELU(alpha=1.0)
    (3): ZeroPad2d((3, 4, 3, 4))
    (4): Conv2d(4, 8, kernel_size=(8, 8), stride=(2, 2))
    (5): ELU(alpha=1.0)
    (6): ZeroPad2d((1, 2, 1, 2))
    (7): Conv2d(8, 16, kernel_size=(4, 4), stride=(2, 2))
    (8): ELU(alpha=1.0)
    (9): ZeroPad2d((0, 1, 0, 1))
    (10): Conv2d(16, 32, kernel_size=(2, 2), stride=(2, 2))
    (11): ELU(alpha=1.0)
    (12): ZeroPad2d((0, 0, 0, 0))
    (13): Conv2d(32, 64, kernel_size=(1, 1), stride=(2, 2))
    (14): ELU(alpha=1.0)
    (15): Flatten(start_dim=1, end_dim=-1)
    (16): Linear(in_features=256, out_features=20, bias=True)
    (17): ELU(alpha=1.0)
  )
  (pnode): ODENet(
    (odenet): Sequential(
      (0): Linear(in_features=22, out_features=50, bias=True)
      (1): ELU(alpha=1.0)
      (2): Linear(in_features=50, out_features=50, bias=True)
      (3): ELU(alpha=1.0)
      (4): Linear(in_features=50, out_features=20, bias=True)
    )
  )
  (decoder_mlp): Sequential(
    (0): Linear(in_features=20, out_features=256, bias=True)
    (1): ELU(alpha=1.0)
  )
  (decoder_conv): Sequential(
    (0): ConvTranspose2d(64, 32, kernel_size=(4, 4), stride=(2, 2), padding=(1, 1))
    (1): ELU(alpha=1.0)
    (2): ConvTranspose2d(32, 16, kernel_size=(4, 4), stride=(2, 2), padding=(1, 1))
    (3): ELU(alpha=1.0)
    (4): ConvTranspose2d(16, 8, kernel_size=(8, 8), stride=(2, 2), padding=(3, 3))
    (5): ELU(alpha=1.0)
    (6): ConvTranspose2d(8, 4, kernel_size=(16, 16), stride=(2, 2), padding=(7, 7))
    (7): ELU(alpha=1.0)
    (8): ConvTranspose2d(4, 1, kernel_size=(16, 16), stride=(2, 2), padding=(7, 7))
    (9): ELU(alpha=1.0)
  )
)
Number of parameters: 83005
{'niters': 4000, 'lr': 0.01, 'save': 'experiments/', 'load': None, 'r': 1991, 'node-layers': 2, 'mlp-layers': 1, 'latents': 20, 'units': 50, 'test_mode': 't5p4', 'resize_dims': (32, 128), 'param_scaling': [1, 1], 'warm_start': 38931, 'do_warm_start': False}
Checkpoint Path
experiments/experiment_61521.ckpt
Input Dim: 
4096
Param Dim: 
2
Latent Dim: 
20
cuda:0
/home/ajivani/WLROM_new/WhiteLight
PNODE_Conv(
  (encoder): Sequential(
    (0): ZeroPad2d((7, 8, 7, 8))
    (1): Conv2d(1, 4, kernel_size=(16, 16), stride=(2, 2))
    (2): ELU(alpha=1.0)
    (3): ZeroPad2d((3, 4, 3, 4))
    (4): Conv2d(4, 8, kernel_size=(8, 8), stride=(2, 2))
    (5): ELU(alpha=1.0)
    (6): ZeroPad2d((1, 2, 1, 2))
    (7): Conv2d(8, 16, kernel_size=(4, 4), stride=(2, 2))
    (8): ELU(alpha=1.0)
    (9): ZeroPad2d((0, 1, 0, 1))
    (10): Conv2d(16, 32, kernel_size=(2, 2), stride=(2, 2))
    (11): ELU(alpha=1.0)
    (12): ZeroPad2d((0, 0, 0, 0))
    (13): Conv2d(32, 64, kernel_size=(1, 1), stride=(2, 2))
    (14): ELU(alpha=1.0)
    (15): Flatten(start_dim=1, end_dim=-1)
    (16): Linear(in_features=256, out_features=20, bias=True)
    (17): ELU(alpha=1.0)
  )
  (pnode): ODENet(
    (odenet): Sequential(
      (0): Linear(in_features=22, out_features=50, bias=True)
      (1): ELU(alpha=1.0)
      (2): Linear(in_features=50, out_features=50, bias=True)
      (3): ELU(alpha=1.0)
      (4): Linear(in_features=50, out_features=20, bias=True)
    )
  )
  (decoder_mlp): Sequential(
    (0): Linear(in_features=20, out_features=256, bias=True)
    (1): ELU(alpha=1.0)
  )
  (decoder_conv): Sequential(
    (0): ConvTranspose2d(64, 32, kernel_size=(4, 4), stride=(2, 2), padding=(1, 1))
    (1): ELU(alpha=1.0)
    (2): ConvTranspose2d(32, 16, kernel_size=(4, 4), stride=(2, 2), padding=(1, 1))
    (3): ELU(alpha=1.0)
    (4): ConvTranspose2d(16, 8, kernel_size=(8, 8), stride=(2, 2), padding=(3, 3))
    (5): ELU(alpha=1.0)
    (6): ConvTranspose2d(8, 4, kernel_size=(16, 16), stride=(2, 2), padding=(7, 7))
    (7): ELU(alpha=1.0)
    (8): ConvTranspose2d(4, 1, kernel_size=(16, 16), stride=(2, 2), padding=(7, 7))
    (9): ELU(alpha=1.0)
  )
)
Number of parameters: 83005
{'niters': 4000, 'lr': 0.01, 'save': 'experiments/', 'load': None, 'r': 1991, 'node-layers': 2, 'mlp-layers': 1, 'latents': 20, 'units': 50, 'test_mode': 't5p4', 'resize_dims': (32, 128), 'param_scaling': [1, 1], 'warm_start': 38931, 'do_warm_start': False}
Checkpoint Path
experiments/experiment_3455.ckpt
Input Dim: 
4096
Param Dim: 
2
Latent Dim: 
20
cuda:0
/home/ajivani/WLROM_new/WhiteLight
PNODE_Conv(
  (encoder): Sequential(
    (0): ZeroPad2d((7, 8, 7, 8))
    (1): Conv2d(1, 4, kernel_size=(16, 16), stride=(2, 2))
    (2): ELU(alpha=1.0)
    (3): ZeroPad2d((3, 4, 3, 4))
    (4): Conv2d(4, 8, kernel_size=(8, 8), stride=(2, 2))
    (5): ELU(alpha=1.0)
    (6): ZeroPad2d((1, 2, 1, 2))
    (7): Conv2d(8, 16, kernel_size=(4, 4), stride=(2, 2))
    (8): ELU(alpha=1.0)
    (9): ZeroPad2d((0, 1, 0, 1))
    (10): Conv2d(16, 32, kernel_size=(2, 2), stride=(2, 2))
    (11): ELU(alpha=1.0)
    (12): ZeroPad2d((0, 0, 0, 0))
    (13): Conv2d(32, 64, kernel_size=(1, 1), stride=(2, 2))
    (14): ELU(alpha=1.0)
    (15): Flatten(start_dim=1, end_dim=-1)
    (16): Linear(in_features=256, out_features=20, bias=True)
    (17): ELU(alpha=1.0)
  )
  (pnode): ODENet(
    (odenet): Sequential(
      (0): Linear(in_features=22, out_features=50, bias=True)
      (1): ELU(alpha=1.0)
      (2): Linear(in_features=50, out_features=50, bias=True)
      (3): ELU(alpha=1.0)
      (4): Linear(in_features=50, out_features=20, bias=True)
    )
  )
  (decoder_mlp): Sequential(
    (0): Linear(in_features=20, out_features=256, bias=True)
    (1): ELU(alpha=1.0)
  )
  (decoder_conv): Sequential(
    (0): ConvTranspose2d(64, 32, kernel_size=(4, 4), stride=(2, 2), padding=(1, 1))
    (1): ELU(alpha=1.0)
    (2): ConvTranspose2d(32, 16, kernel_size=(4, 4), stride=(2, 2), padding=(1, 1))
    (3): ELU(alpha=1.0)
    (4): ConvTranspose2d(16, 8, kernel_size=(8, 8), stride=(2, 2), padding=(3, 3))
    (5): ELU(alpha=1.0)
    (6): ConvTranspose2d(8, 4, kernel_size=(16, 16), stride=(2, 2), padding=(7, 7))
    (7): ELU(alpha=1.0)
    (8): ConvTranspose2d(4, 1, kernel_size=(16, 16), stride=(2, 2), padding=(7, 7))
    (9): ELU(alpha=1.0)
  )
)
Number of parameters: 83005
{'niters': 4000, 'lr': 0.01, 'save': 'experiments/', 'load': None, 'r': 1991, 'node-layers': 2, 'mlp-layers': 1, 'latents': 20, 'units': 50, 'test_mode': 't5p4', 'resize_dims': (32, 128), 'param_scaling': [1, 1], 'warm_start': 38931, 'do_warm_start': False}
Checkpoint Path
experiments/experiment_27167.ckpt
Input Dim: 
4096
Param Dim: 
2
Latent Dim: 
20
cuda:0
/home/ajivani/WLROM_new/WhiteLight
PNODE_Conv(
  (encoder): Sequential(
    (0): ZeroPad2d((7, 8, 7, 8))
    (1): Conv2d(1, 4, kernel_size=(16, 16), stride=(2, 2))
    (2): ELU(alpha=1.0)
    (3): ZeroPad2d((3, 4, 3, 4))
    (4): Conv2d(4, 8, kernel_size=(8, 8), stride=(2, 2))
    (5): ELU(alpha=1.0)
    (6): ZeroPad2d((1, 2, 1, 2))
    (7): Conv2d(8, 16, kernel_size=(4, 4), stride=(2, 2))
    (8): ELU(alpha=1.0)
    (9): ZeroPad2d((0, 1, 0, 1))
    (10): Conv2d(16, 32, kernel_size=(2, 2), stride=(2, 2))
    (11): ELU(alpha=1.0)
    (12): ZeroPad2d((0, 0, 0, 0))
    (13): Conv2d(32, 64, kernel_size=(1, 1), stride=(2, 2))
    (14): ELU(alpha=1.0)
    (15): Flatten(start_dim=1, end_dim=-1)
    (16): Linear(in_features=256, out_features=20, bias=True)
    (17): ELU(alpha=1.0)
  )
  (pnode): ODENet(
    (odenet): Sequential(
      (0): Linear(in_features=22, out_features=50, bias=True)
      (1): ELU(alpha=1.0)
      (2): Linear(in_features=50, out_features=50, bias=True)
      (3): ELU(alpha=1.0)
      (4): Linear(in_features=50, out_features=20, bias=True)
    )
  )
  (decoder_mlp): Sequential(
    (0): Linear(in_features=20, out_features=256, bias=True)
    (1): ELU(alpha=1.0)
  )
  (decoder_conv): Sequential(
    (0): ConvTranspose2d(64, 32, kernel_size=(4, 4), stride=(2, 2), padding=(1, 1))
    (1): ELU(alpha=1.0)
    (2): ConvTranspose2d(32, 16, kernel_size=(4, 4), stride=(2, 2), padding=(1, 1))
    (3): ELU(alpha=1.0)
    (4): ConvTranspose2d(16, 8, kernel_size=(8, 8), stride=(2, 2), padding=(3, 3))
    (5): ELU(alpha=1.0)
    (6): ConvTranspose2d(8, 4, kernel_size=(16, 16), stride=(2, 2), padding=(7, 7))
    (7): ELU(alpha=1.0)
    (8): ConvTranspose2d(4, 1, kernel_size=(16, 16), stride=(2, 2), padding=(7, 7))
    (9): ELU(alpha=1.0)
  )
)
Number of parameters: 83005
{'niters': 4000, 'lr': 0.01, 'save': 'experiments/', 'load': None, 'r': 1991, 'node-layers': 2, 'mlp-layers': 1, 'latents': 20, 'units': 50, 'test_mode': 't5p4', 'resize_dims': (32, 128), 'param_scaling': [1, 1], 'warm_start': 38931, 'do_warm_start': False}
Checkpoint Path
experiments/experiment_44467.ckpt
…
Epoch 3993|Val loss 1.876772e-04|Train loss 2.952263e-05|LR 0.00002|
Epoch 3994|Val loss 1.876770e-04|Train loss 2.952255e-05|LR 0.00002|
Epoch 3995|Val loss 1.876773e-04|Train loss 2.952247e-05|LR 0.00002|
Epoch 3996|Val loss 1.876772e-04|Train loss 2.952238e-05|LR 0.00002|
Epoch 3997|Val loss 1.876772e-04|Train loss 2.952229e-05|LR 0.00002|
Epoch 3998|Val loss 1.876770e-04|Train loss 2.952221e-05|LR 0.00002|
Epoch 3999|Val loss 1.876773e-04|Train loss 2.952213e-05|LR 0.00002|
Epoch 4000|Val loss 1.876773e-04|Train loss 2.952205e-05|LR 0.00002|
/home/ajivani/WLROM_new/WhiteLight
PNODE_Conv(
  (encoder): Sequential(
    (0): ZeroPad2d((7, 8, 7, 8))
    (1): Conv2d(1, 4, kernel_size=(16, 16), stride=(2, 2))
    (2): ELU(alpha=1.0)
    (3): ZeroPad2d((3, 4, 3, 4))
    (4): Conv2d(4, 8, kernel_size=(8, 8), stride=(2, 2))
    (5): ELU(alpha=1.0)
    (6): ZeroPad2d((1, 2, 1, 2))
    (7): Conv2d(8, 16, kernel_size=(4, 4), stride=(2, 2))
    (8): ELU(alpha=1.0)
    (9): ZeroPad2d((0, 1, 0, 1))
    (10): Conv2d(16, 32, kernel_size=(2, 2), stride=(2, 2))
    (11): ELU(alpha=1.0)
    (12): ZeroPad2d((0, 0, 0, 0))
    (13): Conv2d(32, 64, kernel_size=(1, 1), stride=(2, 2))
    (14): ELU(alpha=1.0)
    (15): Flatten(start_dim=1, end_dim=-1)
    (16): Linear(in_features=256, out_features=8, bias=True)
    (17): ELU(alpha=1.0)
  )
  (pnode): ODENet(
    (odenet): Sequential(
      (0): Linear(in_features=10, out_features=50, bias=True)
      (1): ELU(alpha=1.0)
      (2): Linear(in_features=50, out_features=50, bias=True)
      (3): ELU(alpha=1.0)
      (4): Linear(in_features=50, out_features=8, bias=True)
    )
  )
  (decoder_mlp): Sequential(
    (0): Linear(in_features=8, out_features=256, bias=True)
    (1): ELU(alpha=1.0)
  )
  (decoder_conv): Sequential(
    (0): ConvTranspose2d(64, 32, kernel_size=(4, 4), stride=(2, 2), padding=(1, 1))
    (1): ELU(alpha=1.0)
    (2): ConvTranspose2d(32, 16, kernel_size=(4, 4), stride=(2, 2), padding=(1, 1))
    (3): ELU(alpha=1.0)
    (4): ConvTranspose2d(16, 8, kernel_size=(8, 8), stride=(2, 2), padding=(3, 3))
    (5): ELU(alpha=1.0)
    (6): ConvTranspose2d(8, 4, kernel_size=(16, 16), stride=(2, 2), padding=(7, 7))
    (7): ELU(alpha=1.0)
    (8): ConvTranspose2d(4, 1, kernel_size=(16, 16), stride=(2, 2), padding=(7, 7))
    (9): ELU(alpha=1.0)
  )
)
Number of parameters: 75637
{'niters': 4000, 'lr': 0.01, 'save': 'experiments/', 'load': 68818, 'r': 1991, 'node-layers': 2, 'mlp-layers': 1, 'latents': 8, 'units': 50, 'test_mode': 't5p4', 'resize_dims': (32, 128), 'param_scaling': [1, 1], 'warm_start': 38931, 'do_warm_start': False}
Checkpoint Path
experiments/experiment_68818.ckpt
Input Dim: 
4096
Param Dim: 
2
Latent Dim: 
8
cuda:0
/home/ajivani/WLROM_new/WhiteLight
PNODE_Conv(
  (encoder): Sequential(
    (0): ZeroPad2d((7, 8, 7, 8))
    (1): Conv2d(1, 4, kernel_size=(16, 16), stride=(2, 2))
    (2): ELU(alpha=1.0)
    (3): ZeroPad2d((3, 4, 3, 4))
    (4): Conv2d(4, 8, kernel_size=(8, 8), stride=(2, 2))
    (5): ELU(alpha=1.0)
    (6): ZeroPad2d((1, 2, 1, 2))
    (7): Conv2d(8, 16, kernel_size=(4, 4), stride=(2, 2))
    (8): ELU(alpha=1.0)
    (9): ZeroPad2d((0, 1, 0, 1))
    (10): Conv2d(16, 32, kernel_size=(2, 2), stride=(2, 2))
    (11): ELU(alpha=1.0)
    (12): ZeroPad2d((0, 0, 0, 0))
    (13): Conv2d(32, 64, kernel_size=(1, 1), stride=(2, 2))
    (14): ELU(alpha=1.0)
    (15): Flatten(start_dim=1, end_dim=-1)
    (16): Linear(in_features=256, out_features=20, bias=True)
    (17): ELU(alpha=1.0)
  )
  (pnode): ODENet(
    (odenet): Sequential(
      (0): Linear(in_features=22, out_features=50, bias=True)
      (1): ELU(alpha=1.0)
      (2): Linear(in_features=50, out_features=50, bias=True)
      (3): ELU(alpha=1.0)
      (4): Linear(in_features=50, out_features=20, bias=True)
    )
  )
  (decoder_mlp): Sequential(
    (0): Linear(in_features=20, out_features=256, bias=True)
    (1): ELU(alpha=1.0)
  )
  (decoder_conv): Sequential(
    (0): ConvTranspose2d(64, 32, kernel_size=(4, 4), stride=(2, 2), padding=(1, 1))
    (1): ELU(alpha=1.0)
    (2): ConvTranspose2d(32, 16, kernel_size=(4, 4), stride=(2, 2), padding=(1, 1))
    (3): ELU(alpha=1.0)
    (4): ConvTranspose2d(16, 8, kernel_size=(8, 8), stride=(2, 2), padding=(3, 3))
    (5): ELU(alpha=1.0)
    (6): ConvTranspose2d(8, 4, kernel_size=(16, 16), stride=(2, 2), padding=(7, 7))
    (7): ELU(alpha=1.0)
    (8): ConvTranspose2d(4, 1, kernel_size=(16, 16), stride=(2, 2), padding=(7, 7))
    (9): ELU(alpha=1.0)
  )
)
Number of parameters: 83005
{'niters': 4000, 'lr': 0.01, 'save': 'experiments/', 'load': None, 'r': 1991, 'node-layers': 2, 'mlp-layers': 1, 'latents': 20, 'units': 50, 'test_mode': 't5p4', 'resize_dims': (32, 128), 'param_scaling': [1, 1], 'warm_start': 38931, 'do_warm_start': False}
Checkpoint Path
experiments/experiment_57371.ckpt
Input Dim: 
4096
Param Dim: 
2
Latent Dim: 
20
cuda:0
/home/ajivani/WLROM_new/WhiteLight
PNODE_Conv(
  (encoder): Sequential(
    (0): ZeroPad2d((7, 8, 7, 8))
    (1): Conv2d(1, 4, kernel_size=(16, 16), stride=(2, 2))
    (2): ELU(alpha=1.0)
    (3): ZeroPad2d((3, 4, 3, 4))
    (4): Conv2d(4, 8, kernel_size=(8, 8), stride=(2, 2))
    (5): ELU(alpha=1.0)
    (6): ZeroPad2d((1, 2, 1, 2))
    (7): Conv2d(8, 16, kernel_size=(4, 4), stride=(2, 2))
    (8): ELU(alpha=1.0)
    (9): ZeroPad2d((0, 1, 0, 1))
    (10): Conv2d(16, 32, kernel_size=(2, 2), stride=(2, 2))
    (11): ELU(alpha=1.0)
    (12): ZeroPad2d((0, 0, 0, 0))
    (13): Conv2d(32, 64, kernel_size=(1, 1), stride=(2, 2))
    (14): ELU(alpha=1.0)
    (15): Flatten(start_dim=1, end_dim=-1)
    (16): Linear(in_features=256, out_features=20, bias=True)
    (17): ELU(alpha=1.0)
  )
  (pnode): ODENet(
    (odenet): Sequential(
      (0): Linear(in_features=22, out_features=50, bias=True)
      (1): ELU(alpha=1.0)
      (2): Linear(in_features=50, out_features=50, bias=True)
      (3): ELU(alpha=1.0)
      (4): Linear(in_features=50, out_features=20, bias=True)
    )
    (odenet_q): Sequential(
      (0): Linear(in_features=212, out_features=100, bias=True)
      (1): ELU(alpha=1.0)
      (2): Linear(in_features=100, out_features=100, bias=True)
      (3): ELU(alpha=1.0)
      (4): Linear(in_features=100, out_features=20, bias=True)
    )
  )
  (decoder_mlp): Sequential(
    (0): Linear(in_features=20, out_features=256, bias=True)
    (1): ELU(alpha=1.0)
  )
  (decoder_conv): Sequential(
    (0): ConvTranspose2d(64, 32, kernel_size=(4, 4), stride=(2, 2), padding=(1, 1))
    (1): ELU(alpha=1.0)
    (2): ConvTranspose2d(32, 16, kernel_size=(4, 4), stride=(2, 2), padding=(1, 1))
    (3): ELU(alpha=1.0)
    (4): ConvTranspose2d(16, 8, kernel_size=(8, 8), stride=(2, 2), padding=(3, 3))
    (5): ELU(alpha=1.0)
    (6): ConvTranspose2d(8, 4, kernel_size=(16, 16), stride=(2, 2), padding=(7, 7))
    (7): ELU(alpha=1.0)
    (8): ConvTranspose2d(4, 1, kernel_size=(16, 16), stride=(2, 2), padding=(7, 7))
    (9): ELU(alpha=1.0)
  )
)
Number of parameters: 116425
{'niters': 4000, 'lr': 0.01, 'save': 'experiments/', 'load': None, 'r': 1991, 'node-layers': 2, 'mlp-layers': 1, 'latents': 20, 'units': 50, 'test_mode': 't5p4', 'resize_dims': (32, 128), 'param_scaling': [1, 1], 'warm_start': 38931, 'do_warm_start': False, 'quadratic': False}
Checkpoint Path
experiments/experiment_47172.ckpt
Input Dim: 
4096
Param Dim: 
2
Latent Dim: 
20
cuda:0
/home/ajivani/WLROM_new/WhiteLight
PNODE_Conv(
  (encoder): Sequential(
    (0): ZeroPad2d((7, 8, 7, 8))
    (1): Conv2d(1, 4, kernel_size=(16, 16), stride=(2, 2))
    (2): ELU(alpha=1.0)
    (3): ZeroPad2d((3, 4, 3, 4))
    (4): Conv2d(4, 8, kernel_size=(8, 8), stride=(2, 2))
    (5): ELU(alpha=1.0)
    (6): ZeroPad2d((1, 2, 1, 2))
    (7): Conv2d(8, 16, kernel_size=(4, 4), stride=(2, 2))
    (8): ELU(alpha=1.0)
    (9): ZeroPad2d((0, 1, 0, 1))
    (10): Conv2d(16, 32, kernel_size=(2, 2), stride=(2, 2))
    (11): ELU(alpha=1.0)
    (12): ZeroPad2d((0, 0, 0, 0))
    (13): Conv2d(32, 64, kernel_size=(1, 1), stride=(2, 2))
    (14): ELU(alpha=1.0)
    (15): Flatten(start_dim=1, end_dim=-1)
    (16): Linear(in_features=256, out_features=20, bias=True)
    (17): ELU(alpha=1.0)
  )
  (pnode): ODENet(
    (odenet): Sequential(
      (0): Linear(in_features=22, out_features=50, bias=True)
      (1): ELU(alpha=1.0)
      (2): Linear(in_features=50, out_features=50, bias=True)
      (3): ELU(alpha=1.0)
      (4): Linear(in_features=50, out_features=20, bias=True)
    )
    (odenet_q): Sequential(
      (0): Linear(in_features=212, out_features=100, bias=True)
      (1): ELU(alpha=1.0)
      (2): Linear(in_features=100, out_features=100, bias=True)
      (3): ELU(alpha=1.0)
      (4): Linear(in_features=100, out_features=20, bias=True)
    )
  )
  (decoder_mlp): Sequential(
    (0): Linear(in_features=20, out_features=256, bias=True)
    (1): ELU(alpha=1.0)
  )
  (decoder_conv): Sequential(
    (0): ConvTranspose2d(64, 32, kernel_size=(4, 4), stride=(2, 2), padding=(1, 1))
    (1): ELU(alpha=1.0)
    (2): ConvTranspose2d(32, 16, kernel_size=(4, 4), stride=(2, 2), padding=(1, 1))
    (3): ELU(alpha=1.0)
    (4): ConvTranspose2d(16, 8, kernel_size=(8, 8), stride=(2, 2), padding=(3, 3))
    (5): ELU(alpha=1.0)
    (6): ConvTranspose2d(8, 4, kernel_size=(16, 16), stride=(2, 2), padding=(7, 7))
    (7): ELU(alpha=1.0)
    (8): ConvTranspose2d(4, 1, kernel_size=(16, 16), stride=(2, 2), padding=(7, 7))
    (9): ELU(alpha=1.0)
  )
)
Number of parameters: 116425
{'niters': 4000, 'lr': 0.01, 'save': 'experiments/', 'load': None, 'r': 1991, 'node-layers': 2, 'mlp-layers': 1, 'latents': 20, 'units': 50, 'test_mode': 't5p4', 'resize_dims': (32, 128), 'param_scaling': [1, 1], 'warm_start': 38931, 'do_warm_start': False, 'quadratic': True}
Checkpoint Path
experiments/experiment_61057.ckpt
Input Dim: 
4096
Param Dim: 
2
Latent Dim: 
20
cuda:0
/home/ajivani/WLROM_new/WhiteLight
PNODE_Conv(
  (encoder): Sequential(
    (0): ZeroPad2d((7, 8, 7, 8))
    (1): Conv2d(1, 4, kernel_size=(16, 16), stride=(2, 2))
    (2): ELU(alpha=1.0)
    (3): ZeroPad2d((3, 4, 3, 4))
    (4): Conv2d(4, 8, kernel_size=(8, 8), stride=(2, 2))
    (5): ELU(alpha=1.0)
    (6): ZeroPad2d((1, 2, 1, 2))
    (7): Conv2d(8, 16, kernel_size=(4, 4), stride=(2, 2))
    (8): ELU(alpha=1.0)
    (9): ZeroPad2d((0, 1, 0, 1))
    (10): Conv2d(16, 32, kernel_size=(2, 2), stride=(2, 2))
    (11): ELU(alpha=1.0)
    (12): ZeroPad2d((0, 0, 0, 0))
    (13): Conv2d(32, 64, kernel_size=(1, 1), stride=(2, 2))
    (14): ELU(alpha=1.0)
    (15): Flatten(start_dim=1, end_dim=-1)
    (16): Linear(in_features=256, out_features=20, bias=True)
    (17): ELU(alpha=1.0)
  )
  (pnode): ODENet(
    (odenet): Sequential(
      (0): Linear(in_features=22, out_features=50, bias=True)
      (1): ELU(alpha=1.0)
      (2): Linear(in_features=50, out_features=50, bias=True)
      (3): ELU(alpha=1.0)
      (4): Linear(in_features=50, out_features=20, bias=True)
    )
    (odenet_q): Sequential(
      (0): Linear(in_features=212, out_features=100, bias=True)
      (1): ELU(alpha=1.0)
      (2): Linear(in_features=100, out_features=100, bias=True)
      (3): ELU(alpha=1.0)
      (4): Linear(in_features=100, out_features=20, bias=True)
    )
  )
  (decoder_mlp): Sequential(
    (0): Linear(in_features=20, out_features=256, bias=True)
    (1): ELU(alpha=1.0)
  )
  (decoder_conv): Sequential(
    (0): ConvTranspose2d(64, 32, kernel_size=(4, 4), stride=(2, 2), padding=(1, 1))
    (1): ELU(alpha=1.0)
    (2): ConvTranspose2d(32, 16, kernel_size=(4, 4), stride=(2, 2), padding=(1, 1))
    (3): ELU(alpha=1.0)
    (4): ConvTranspose2d(16, 8, kernel_size=(8, 8), stride=(2, 2), padding=(3, 3))
    (5): ELU(alpha=1.0)
    (6): ConvTranspose2d(8, 4, kernel_size=(16, 16), stride=(2, 2), padding=(7, 7))
    (7): ELU(alpha=1.0)
    (8): ConvTranspose2d(4, 1, kernel_size=(16, 16), stride=(2, 2), padding=(7, 7))
    (9): ELU(alpha=1.0)
  )
)
Number of parameters: 116425
{'niters': 4000, 'lr': 0.01, 'save': 'experiments/', 'load': None, 'r': 1991, 'node-layers': 2, 'mlp-layers': 1, 'latents': 20, 'units': 50, 'test_mode': 't5p4', 'resize_dims': (32, 128), 'param_scaling': [1, 1], 'warm_start': 38931, 'do_warm_start': False, 'quadratic': True}
Checkpoint Path
experiments/experiment_58840.ckpt
Input Dim: 
4096
Param Dim: 
2
Latent Dim: 
20
cuda:0
/home/ajivani/WLROM_new/WhiteLight
PNODE_Conv(
  (encoder): Sequential(
    (0): ZeroPad2d((7, 8, 7, 8))
    (1): Conv2d(1, 4, kernel_size=(16, 16), stride=(2, 2))
    (2): ELU(alpha=1.0)
    (3): ZeroPad2d((3, 4, 3, 4))
    (4): Conv2d(4, 8, kernel_size=(8, 8), stride=(2, 2))
    (5): ELU(alpha=1.0)
    (6): ZeroPad2d((1, 2, 1, 2))
    (7): Conv2d(8, 16, kernel_size=(4, 4), stride=(2, 2))
    (8): ELU(alpha=1.0)
    (9): ZeroPad2d((0, 1, 0, 1))
    (10): Conv2d(16, 32, kernel_size=(2, 2), stride=(2, 2))
    (11): ELU(alpha=1.0)
    (12): ZeroPad2d((0, 0, 0, 0))
    (13): Conv2d(32, 64, kernel_size=(1, 1), stride=(2, 2))
    (14): ELU(alpha=1.0)
    (15): Flatten(start_dim=1, end_dim=-1)
    (16): Linear(in_features=256, out_features=20, bias=True)
    (17): ELU(alpha=1.0)
  )
  (pnode): ODENet(
    (odenet): Sequential(
      (0): Linear(in_features=22, out_features=50, bias=True)
      (1): ELU(alpha=1.0)
      (2): Linear(in_features=50, out_features=50, bias=True)
      (3): ELU(alpha=1.0)
      (4): Linear(in_features=50, out_features=20, bias=True)
    )
    (odenet_q): Sequential(
      (0): Linear(in_features=212, out_features=100, bias=True)
      (1): ELU(alpha=1.0)
      (2): Linear(in_features=100, out_features=100, bias=True)
      (3): ELU(alpha=1.0)
      (4): Linear(in_features=100, out_features=20, bias=True)
    )
  )
  (decoder_mlp): Sequential(
    (0): Linear(in_features=20, out_features=256, bias=True)
    (1): ELU(alpha=1.0)
  )
  (decoder_conv): Sequential(
    (0): ConvTranspose2d(64, 32, kernel_size=(4, 4), stride=(2, 2), padding=(1, 1))
    (1): ELU(alpha=1.0)
    (2): ConvTranspose2d(32, 16, kernel_size=(4, 4), stride=(2, 2), padding=(1, 1))
    (3): ELU(alpha=1.0)
    (4): ConvTranspose2d(16, 8, kernel_size=(8, 8), stride=(2, 2), padding=(3, 3))
    (5): ELU(alpha=1.0)
    (6): ConvTranspose2d(8, 4, kernel_size=(16, 16), stride=(2, 2), padding=(7, 7))
    (7): ELU(alpha=1.0)
    (8): ConvTranspose2d(4, 1, kernel_size=(16, 16), stride=(2, 2), padding=(7, 7))
    (9): ELU(alpha=1.0)
  )
)
Number of parameters: 116425
{'niters': 4000, 'lr': 0.01, 'save': 'experiments/', 'load': None, 'r': 1991, 'node-layers': 2, 'mlp-layers': 1, 'latents': 20, 'units': 50, 'test_mode': 't5p4', 'resize_dims': (32, 128), 'param_scaling': [1, 1], 'warm_start': 38931, 'do_warm_start': False, 'quadratic': True}
Checkpoint Path
experiments/experiment_62501.ckpt
Input Dim: 
4096
Param Dim: 
2
Latent Dim: 
20
cuda:0
/home/ajivani/WLROM_new/WhiteLight
PNODE_Conv(
  (encoder): Sequential(
    (0): ZeroPad2d((7, 8, 7, 8))
    (1): Conv2d(1, 4, kernel_size=(16, 16), stride=(2, 2))
    (2): ELU(alpha=1.0)
    (3): ZeroPad2d((3, 4, 3, 4))
    (4): Conv2d(4, 8, kernel_size=(8, 8), stride=(2, 2))
    (5): ELU(alpha=1.0)
    (6): ZeroPad2d((1, 2, 1, 2))
    (7): Conv2d(8, 16, kernel_size=(4, 4), stride=(2, 2))
    (8): ELU(alpha=1.0)
    (9): ZeroPad2d((0, 1, 0, 1))
    (10): Conv2d(16, 32, kernel_size=(2, 2), stride=(2, 2))
    (11): ELU(alpha=1.0)
    (12): ZeroPad2d((0, 0, 0, 0))
    (13): Conv2d(32, 64, kernel_size=(1, 1), stride=(2, 2))
    (14): ELU(alpha=1.0)
    (15): Flatten(start_dim=1, end_dim=-1)
    (16): Linear(in_features=256, out_features=20, bias=True)
    (17): ELU(alpha=1.0)
  )
  (pnode): ODENet(
    (odenet): Sequential(
      (0): Linear(in_features=22, out_features=50, bias=True)
      (1): ELU(alpha=1.0)
      (2): Linear(in_features=50, out_features=50, bias=True)
      (3): ELU(alpha=1.0)
      (4): Linear(in_features=50, out_features=20, bias=True)
    )
    (odenet_q): Sequential(
      (0): Linear(in_features=212, out_features=100, bias=True)
      (1): ELU(alpha=1.0)
      (2): Linear(in_features=100, out_features=100, bias=True)
      (3): ELU(alpha=1.0)
      (4): Linear(in_features=100, out_features=20, bias=True)
    )
  )
  (decoder_mlp): Sequential(
    (0): Linear(in_features=20, out_features=256, bias=True)
    (1): ELU(alpha=1.0)
  )
  (decoder_conv): Sequential(
    (0): ConvTranspose2d(64, 32, kernel_size=(4, 4), stride=(2, 2), padding=(1, 1))
    (1): ELU(alpha=1.0)
    (2): ConvTranspose2d(32, 16, kernel_size=(4, 4), stride=(2, 2), padding=(1, 1))
    (3): ELU(alpha=1.0)
    (4): ConvTranspose2d(16, 8, kernel_size=(8, 8), stride=(2, 2), padding=(3, 3))
    (5): ELU(alpha=1.0)
    (6): ConvTranspose2d(8, 4, kernel_size=(16, 16), stride=(2, 2), padding=(7, 7))
    (7): ELU(alpha=1.0)
    (8): ConvTranspose2d(4, 1, kernel_size=(16, 16), stride=(2, 2), padding=(7, 7))
    (9): ELU(alpha=1.0)
  )
)
Number of parameters: 116425
{'niters': 4000, 'lr': 0.01, 'save': 'experiments/', 'load': None, 'r': 1991, 'node-layers': 2, 'mlp-layers': 1, 'latents': 20, 'units': 50, 'test_mode': 't5p4', 'resize_dims': (32, 128), 'param_scaling': [1, 1], 'warm_start': 38931, 'do_warm_start': False, 'quadratic': True}
Checkpoint Path
experiments/experiment_28045.ckpt
Input Dim: 
4096
Param Dim: 
2
Latent Dim: 
20
cuda:0
No such comm target registered: jupyter.widget.control
No such comm: 80debcd7-3274-4a04-a4e7-1d64ddf87bb5
/home/ajivani/WLROM_new/WhiteLight
/home/ajivani/WLROM_new/WhiteLight
PNODE_Conv(
  (encoder): Sequential(
    (0): ZeroPad2d((7, 8, 7, 8))
    (1): Conv2d(1, 4, kernel_size=(16, 16), stride=(2, 2))
    (2): ELU(alpha=1.0)
    (3): ZeroPad2d((3, 4, 3, 4))
    (4): Conv2d(4, 8, kernel_size=(8, 8), stride=(2, 2))
    (5): ELU(alpha=1.0)
    (6): ZeroPad2d((1, 2, 1, 2))
    (7): Conv2d(8, 16, kernel_size=(4, 4), stride=(2, 2))
    (8): ELU(alpha=1.0)
    (9): ZeroPad2d((0, 1, 0, 1))
    (10): Conv2d(16, 32, kernel_size=(2, 2), stride=(2, 2))
    (11): ELU(alpha=1.0)
    (12): ZeroPad2d((0, 0, 0, 0))
    (13): Conv2d(32, 64, kernel_size=(1, 1), stride=(2, 2))
    (14): ELU(alpha=1.0)
    (15): Flatten(start_dim=1, end_dim=-1)
    (16): Linear(in_features=256, out_features=20, bias=True)
    (17): ELU(alpha=1.0)
  )
  (pnode): ODENet(
    (odenet): Sequential(
      (0): Linear(in_features=22, out_features=50, bias=True)
      (1): ELU(alpha=1.0)
      (2): Linear(in_features=50, out_features=50, bias=True)
      (3): ELU(alpha=1.0)
      (4): Linear(in_features=50, out_features=20, bias=True)
    )
    (odenet_q): Sequential(
      (0): Linear(in_features=212, out_features=100, bias=True)
      (1): ELU(alpha=1.0)
      (2): Linear(in_features=100, out_features=100, bias=True)
      (3): ELU(alpha=1.0)
      (4): Linear(in_features=100, out_features=20, bias=True)
    )
  )
  (decoder_mlp): Sequential(
    (0): Linear(in_features=20, out_features=256, bias=True)
    (1): ELU(alpha=1.0)
  )
  (decoder_conv): Sequential(
    (0): ConvTranspose2d(64, 32, kernel_size=(4, 4), stride=(2, 2), padding=(1, 1))
    (1): ELU(alpha=1.0)
    (2): ConvTranspose2d(32, 16, kernel_size=(4, 4), stride=(2, 2), padding=(1, 1))
    (3): ELU(alpha=1.0)
    (4): ConvTranspose2d(16, 8, kernel_size=(8, 8), stride=(2, 2), padding=(3, 3))
    (5): ELU(alpha=1.0)
    (6): ConvTranspose2d(8, 4, kernel_size=(16, 16), stride=(2, 2), padding=(7, 7))
    (7): ELU(alpha=1.0)
    (8): ConvTranspose2d(4, 1, kernel_size=(16, 16), stride=(2, 2), padding=(7, 7))
    (9): ELU(alpha=1.0)
  )
)
PNODE_Conv(
  (encoder): Sequential(
    (0): ZeroPad2d((7, 8, 7, 8))
    (1): Conv2d(1, 4, kernel_size=(16, 16), stride=(2, 2))
    (2): ELU(alpha=1.0)
    (3): ZeroPad2d((3, 4, 3, 4))
    (4): Conv2d(4, 8, kernel_size=(8, 8), stride=(2, 2))
    (5): ELU(alpha=1.0)
    (6): ZeroPad2d((1, 2, 1, 2))
    (7): Conv2d(8, 16, kernel_size=(4, 4), stride=(2, 2))
    (8): ELU(alpha=1.0)
    (9): ZeroPad2d((0, 1, 0, 1))
    (10): Conv2d(16, 32, kernel_size=(2, 2), stride=(2, 2))
    (11): ELU(alpha=1.0)
    (12): ZeroPad2d((0, 0, 0, 0))
    (13): Conv2d(32, 64, kernel_size=(1, 1), stride=(2, 2))
    (14): ELU(alpha=1.0)
    (15): Flatten(start_dim=1, end_dim=-1)
    (16): Linear(in_features=256, out_features=20, bias=True)
    (17): ELU(alpha=1.0)
  )
  (pnode): ODENet(
    (odenet): Sequential(
      (0): Linear(in_features=22, out_features=50, bias=True)
      (1): ELU(alpha=1.0)
      (2): Linear(in_features=50, out_features=50, bias=True)
      (3): ELU(alpha=1.0)
      (4): Linear(in_features=50, out_features=20, bias=True)
    )
    (odenet_q): Sequential(
      (0): Linear(in_features=212, out_features=100, bias=True)
      (1): ELU(alpha=1.0)
      (2): Linear(in_features=100, out_features=100, bias=True)
      (3): ELU(alpha=1.0)
      (4): Linear(in_features=100, out_features=20, bias=True)
    )
  )
  (decoder_mlp): Sequential(
    (0): Linear(in_features=20, out_features=256, bias=True)
    (1): ELU(alpha=1.0)
  )
  (decoder_conv): Sequential(
    (0): ConvTranspose2d(64, 32, kernel_size=(4, 4), stride=(2, 2), padding=(1, 1))
    (1): ELU(alpha=1.0)
    (2): ConvTranspose2d(32, 16, kernel_size=(4, 4), stride=(2, 2), padding=(1, 1))
    (3): ELU(alpha=1.0)
    (4): ConvTranspose2d(16, 8, kernel_size=(8, 8), stride=(2, 2), padding=(3, 3))
    (5): ELU(alpha=1.0)
    (6): ConvTranspose2d(8, 4, kernel_size=(16, 16), stride=(2, 2), padding=(7, 7))
    (7): ELU(alpha=1.0)
    (8): ConvTranspose2d(4, 1, kernel_size=(16, 16), stride=(2, 2), padding=(7, 7))
    (9): ELU(alpha=1.0)
  )
)
Number of parameters: 116425
Number of parameters: 116425
{'niters': 4000, 'lr': 0.01, 'save': 'experiments/', 'load': None, 'r': 1991, 'node-layers': 2, 'mlp-layers': 1, 'latents': 20, 'units': 50, 'test_mode': 't5p4', 'resize_dims': (32, 128), 'param_scaling': [1, 1], 'warm_start': 38931, 'do_warm_start': False, 'quadratic': True}
{'niters': 4000, 'lr': 0.01, 'save': 'experiments/', 'load': None, 'r': 1991, 'node-layers': 2, 'mlp-layers': 1, 'latents': 20, 'units': 50, 'test_mode': 't5p4', 'resize_dims': (32, 128), 'param_scaling': [1, 1], 'warm_start': 38931, 'do_warm_start': False, 'quadratic': True}
Checkpoint Path
Checkpoint Path
experiments/experiment_99631.ckpt
experiments/experiment_99631.ckpt
Input Dim: 
Input Dim: 
4096
4096
Param Dim: 
Param Dim: 
2
2
Latent Dim: 
Latent Dim: 
20
20
cuda:0
cuda:0
/home/ajivani/WLROM_new/WhiteLight
PNODE_Conv(
  (encoder): Sequential(
    (0): ZeroPad2d((7, 8, 7, 8))
    (1): Conv2d(1, 4, kernel_size=(16, 16), stride=(2, 2))
    (2): ELU(alpha=1.0)
    (3): ZeroPad2d((3, 4, 3, 4))
    (4): Conv2d(4, 8, kernel_size=(8, 8), stride=(2, 2))
    (5): ELU(alpha=1.0)
    (6): ZeroPad2d((1, 2, 1, 2))
    (7): Conv2d(8, 16, kernel_size=(4, 4), stride=(2, 2))
    (8): ELU(alpha=1.0)
    (9): ZeroPad2d((0, 1, 0, 1))
    (10): Conv2d(16, 32, kernel_size=(2, 2), stride=(2, 2))
    (11): ELU(alpha=1.0)
    (12): ZeroPad2d((0, 0, 0, 0))
    (13): Conv2d(32, 64, kernel_size=(1, 1), stride=(2, 2))
    (14): ELU(alpha=1.0)
    (15): Flatten(start_dim=1, end_dim=-1)
    (16): Linear(in_features=256, out_features=20, bias=True)
    (17): ELU(alpha=1.0)
  )
  (pnode): ODENet(
    (odenet): Sequential(
      (0): Linear(in_features=22, out_features=50, bias=True)
      (1): ELU(alpha=1.0)
      (2): Linear(in_features=50, out_features=50, bias=True)
      (3): ELU(alpha=1.0)
      (4): Linear(in_features=50, out_features=20, bias=True)
    )
    (odenet_q): Sequential(
      (0): Linear(in_features=212, out_features=100, bias=True)
      (1): ELU(alpha=1.0)
      (2): Linear(in_features=100, out_features=100, bias=True)
      (3): ELU(alpha=1.0)
      (4): Linear(in_features=100, out_features=20, bias=True)
    )
  )
  (decoder_mlp): Sequential(
    (0): Linear(in_features=20, out_features=256, bias=True)
    (1): ELU(alpha=1.0)
  )
  (decoder_conv): Sequential(
    (0): ConvTranspose2d(64, 32, kernel_size=(4, 4), stride=(2, 2), padding=(1, 1))
    (1): ELU(alpha=1.0)
    (2): ConvTranspose2d(32, 16, kernel_size=(4, 4), stride=(2, 2), padding=(1, 1))
    (3): ELU(alpha=1.0)
    (4): ConvTranspose2d(16, 8, kernel_size=(8, 8), stride=(2, 2), padding=(3, 3))
    (5): ELU(alpha=1.0)
    (6): ConvTranspose2d(8, 4, kernel_size=(16, 16), stride=(2, 2), padding=(7, 7))
    (7): ELU(alpha=1.0)
    (8): ConvTranspose2d(4, 1, kernel_size=(16, 16), stride=(2, 2), padding=(7, 7))
    (9): ELU(alpha=1.0)
  )
)
Number of parameters: 116425
{'niters': 4000, 'lr': 0.01, 'save': 'experiments/', 'load': None, 'r': 1991, 'node-layers': 2, 'mlp-layers': 1, 'latents': 20, 'units': 50, 'test_mode': 't5p4', 'resize_dims': (32, 128), 'param_scaling': [1, 1], 'warm_start': 38931, 'do_warm_start': False, 'quadratic': True}
Checkpoint Path
…
Epoch 0218|Val loss 7.312973e-04|Train loss 4.479795e-04|LR 0.01000|
Epoch 0219|Val loss 7.292446e-04|Train loss 4.464905e-04|LR 0.01000|
Epoch 0220|Val loss 7.272151e-04|Train loss 4.450070e-04|LR 0.01000|
Epoch 0221|Val loss 7.251979e-04|Train loss 4.435287e-04|LR 0.01000|
Epoch 0222|Val loss 7.231999e-04|Train loss 4.420557e-04|LR 0.01000|
Epoch 0223|Val loss 7.212240e-04|Train loss 4.405878e-04|LR 0.01000|
Epoch 0224|Val loss 7.192601e-04|Train loss 4.391250e-04|LR 0.01000|
/home/ajivani/WLROM_new/WhiteLight
/home/ajivani/WLROM_new/WhiteLight
PNODE_Conv(
  (encoder): Sequential(
    (0): ZeroPad2d((7, 8, 7, 8))
    (1): Conv2d(1, 4, kernel_size=(16, 16), stride=(2, 2))
    (2): ELU(alpha=1.0)
    (3): ZeroPad2d((3, 4, 3, 4))
    (4): Conv2d(4, 8, kernel_size=(8, 8), stride=(2, 2))
    (5): ELU(alpha=1.0)
    (6): ZeroPad2d((1, 2, 1, 2))
    (7): Conv2d(8, 16, kernel_size=(4, 4), stride=(2, 2))
    (8): ELU(alpha=1.0)
    (9): ZeroPad2d((0, 1, 0, 1))
    (10): Conv2d(16, 32, kernel_size=(2, 2), stride=(2, 2))
    (11): ELU(alpha=1.0)
    (12): ZeroPad2d((0, 0, 0, 0))
    (13): Conv2d(32, 64, kernel_size=(1, 1), stride=(2, 2))
    (14): ELU(alpha=1.0)
    (15): Flatten(start_dim=1, end_dim=-1)
    (16): Linear(in_features=256, out_features=8, bias=True)
    (17): ELU(alpha=1.0)
  )
  (pnode): ODENet(
    (odenet): Sequential(
      (0): Linear(in_features=10, out_features=50, bias=True)
      (1): ELU(alpha=1.0)
      (2): Linear(in_features=50, out_features=50, bias=True)
      (3): ELU(alpha=1.0)
      (4): Linear(in_features=50, out_features=8, bias=True)
    )
    (odenet_q): Sequential(
      (0): Linear(in_features=38, out_features=100, bias=True)
      (1): ELU(alpha=1.0)
      (2): Linear(in_features=100, out_features=100, bias=True)
      (3): ELU(alpha=1.0)
      (4): Linear(in_features=100, out_features=8, bias=True)
    )
  )
  (decoder_mlp): Sequential(
    (0): Linear(in_features=8, out_features=256, bias=True)
    (1): ELU(alpha=1.0)
  )
  (decoder_conv): Sequential(
    (0): ConvTranspose2d(64, 32, kernel_size=(4, 4), stride=(2, 2), padding=(1, 1))
    (1): ELU(alpha=1.0)
    (2): ConvTranspose2d(32, 16, kernel_size=(4, 4), stride=(2, 2), padding=(1, 1))
    (3): ELU(alpha=1.0)
    (4): ConvTranspose2d(16, 8, kernel_size=(8, 8), stride=(2, 2), padding=(3, 3))
    (5): ELU(alpha=1.0)
    (6): ConvTranspose2d(8, 4, kernel_size=(16, 16), stride=(2, 2), padding=(7, 7))
    (7): ELU(alpha=1.0)
    (8): ConvTranspose2d(4, 1, kernel_size=(16, 16), stride=(2, 2), padding=(7, 7))
    (9): ELU(alpha=1.0)
  )
)
PNODE_Conv(
  (encoder): Sequential(
    (0): ZeroPad2d((7, 8, 7, 8))
    (1): Conv2d(1, 4, kernel_size=(16, 16), stride=(2, 2))
    (2): ELU(alpha=1.0)
    (3): ZeroPad2d((3, 4, 3, 4))
    (4): Conv2d(4, 8, kernel_size=(8, 8), stride=(2, 2))
    (5): ELU(alpha=1.0)
    (6): ZeroPad2d((1, 2, 1, 2))
    (7): Conv2d(8, 16, kernel_size=(4, 4), stride=(2, 2))
    (8): ELU(alpha=1.0)
    (9): ZeroPad2d((0, 1, 0, 1))
    (10): Conv2d(16, 32, kernel_size=(2, 2), stride=(2, 2))
    (11): ELU(alpha=1.0)
    (12): ZeroPad2d((0, 0, 0, 0))
    (13): Conv2d(32, 64, kernel_size=(1, 1), stride=(2, 2))
    (14): ELU(alpha=1.0)
    (15): Flatten(start_dim=1, end_dim=-1)
    (16): Linear(in_features=256, out_features=8, bias=True)
    (17): ELU(alpha=1.0)
  )
  (pnode): ODENet(
    (odenet): Sequential(
      (0): Linear(in_features=10, out_features=50, bias=True)
      (1): ELU(alpha=1.0)
      (2): Linear(in_features=50, out_features=50, bias=True)
      (3): ELU(alpha=1.0)
      (4): Linear(in_features=50, out_features=8, bias=True)
    )
    (odenet_q): Sequential(
      (0): Linear(in_features=38, out_features=100, bias=True)
      (1): ELU(alpha=1.0)
      (2): Linear(in_features=100, out_features=100, bias=True)
      (3): ELU(alpha=1.0)
      (4): Linear(in_features=100, out_features=8, bias=True)
    )
  )
  (decoder_mlp): Sequential(
    (0): Linear(in_features=8, out_features=256, bias=True)
    (1): ELU(alpha=1.0)
  )
  (decoder_conv): Sequential(
    (0): ConvTranspose2d(64, 32, kernel_size=(4, 4), stride=(2, 2), padding=(1, 1))
    (1): ELU(alpha=1.0)
    (2): ConvTranspose2d(32, 16, kernel_size=(4, 4), stride=(2, 2), padding=(1, 1))
    (3): ELU(alpha=1.0)
    (4): ConvTranspose2d(16, 8, kernel_size=(8, 8), stride=(2, 2), padding=(3, 3))
    (5): ELU(alpha=1.0)
    (6): ConvTranspose2d(8, 4, kernel_size=(16, 16), stride=(2, 2), padding=(7, 7))
    (7): ELU(alpha=1.0)
    (8): ConvTranspose2d(4, 1, kernel_size=(16, 16), stride=(2, 2), padding=(7, 7))
    (9): ELU(alpha=1.0)
  )
)
Number of parameters: 90445
Number of parameters: 90445
{'niters': 4000, 'lr': 0.01, 'save': 'experiments/', 'load': None, 'r': 1991, 'node-layers': 2, 'mlp-layers': 1, 'latents': 8, 'units': 50, 'test_mode': 't5p4', 'resize_dims': (32, 128), 'param_scaling': [1, 1], 'warm_start': 54194, 'do_warm_start': True, 'quadratic': True}
{'niters': 4000, 'lr': 0.01, 'save': 'experiments/', 'load': None, 'r': 1991, 'node-layers': 2, 'mlp-layers': 1, 'latents': 8, 'units': 50, 'test_mode': 't5p4', 'resize_dims': (32, 128), 'param_scaling': [1, 1], 'warm_start': 54194, 'do_warm_start': True, 'quadratic': True}
Checkpoint Path
Checkpoint Path
experiments/experiment_54194.ckpt
experiments/experiment_54194.ckpt
Input Dim: 
Input Dim: 
4096
4096
Param Dim: 
Param Dim: 
2
2
Latent Dim: 
Latent Dim: 
8
8
cuda:0
cuda:0
/home/ajivani/WLROM_new/WhiteLight
PNODE_Conv(
  (encoder): Sequential(
    (0): ZeroPad2d((7, 8, 7, 8))
    (1): Conv2d(1, 4, kernel_size=(16, 16), stride=(2, 2))
    (2): ELU(alpha=1.0)
    (3): ZeroPad2d((3, 4, 3, 4))
    (4): Conv2d(4, 8, kernel_size=(8, 8), stride=(2, 2))
    (5): ELU(alpha=1.0)
    (6): ZeroPad2d((1, 2, 1, 2))
    (7): Conv2d(8, 16, kernel_size=(4, 4), stride=(2, 2))
    (8): ELU(alpha=1.0)
    (9): ZeroPad2d((0, 1, 0, 1))
    (10): Conv2d(16, 32, kernel_size=(2, 2), stride=(2, 2))
    (11): ELU(alpha=1.0)
    (12): ZeroPad2d((0, 0, 0, 0))
    (13): Conv2d(32, 64, kernel_size=(1, 1), stride=(2, 2))
    (14): ELU(alpha=1.0)
    (15): Flatten(start_dim=1, end_dim=-1)
    (16): Linear(in_features=256, out_features=8, bias=True)
    (17): ELU(alpha=1.0)
  )
  (pnode): ODENet(
    (odenet): Sequential(
      (0): Linear(in_features=10, out_features=50, bias=True)
      (1): ELU(alpha=1.0)
      (2): Linear(in_features=50, out_features=50, bias=True)
      (3): ELU(alpha=1.0)
      (4): Linear(in_features=50, out_features=8, bias=True)
    )
    (odenet_q): Sequential(
      (0): Linear(in_features=38, out_features=100, bias=True)
      (1): ELU(alpha=1.0)
      (2): Linear(in_features=100, out_features=100, bias=True)
      (3): ELU(alpha=1.0)
      (4): Linear(in_features=100, out_features=8, bias=True)
    )
  )
  (decoder_mlp): Sequential(
    (0): Linear(in_features=8, out_features=256, bias=True)
    (1): ELU(alpha=1.0)
  )
  (decoder_conv): Sequential(
    (0): ConvTranspose2d(64, 32, kernel_size=(4, 4), stride=(2, 2), padding=(1, 1))
    (1): ELU(alpha=1.0)
    (2): ConvTranspose2d(32, 16, kernel_size=(4, 4), stride=(2, 2), padding=(1, 1))
    (3): ELU(alpha=1.0)
    (4): ConvTranspose2d(16, 8, kernel_size=(8, 8), stride=(2, 2), padding=(3, 3))
    (5): ELU(alpha=1.0)
    (6): ConvTranspose2d(8, 4, kernel_size=(16, 16), stride=(2, 2), padding=(7, 7))
    (7): ELU(alpha=1.0)
    (8): ConvTranspose2d(4, 1, kernel_size=(16, 16), stride=(2, 2), padding=(7, 7))
    (9): ELU(alpha=1.0)
  )
)
Number of parameters: 90445
{'niters': 4000, 'lr': 0.01, 'save': 'experiments/', 'load': None, 'r': 1991, 'node-layers': 2, 'mlp-layers': 1, 'latents': 8, 'units': 50, 'test_mode': 't5p4', 'resize_dims': (32, 128), 'param_scaling': [1, 1], 'warm_start': 54194, 'do_warm_start': False, 'quadratic': True}
Checkpoint Path
…
