/home/ajivani/WLROM_new/WhiteLight
/home/ajivani/WLROM_new/WhiteLight
/home/ajivani/WLROM_new/WhiteLight
/home/ajivani/WLROM_new/WhiteLight
PNODE_Conv(
  (encoder): Sequential(
    (0): ZeroPad2d((7, 8, 7, 8))
    (1): Conv2d(1, 8, kernel_size=(16, 16), stride=(2, 2))
    (2): ELU(alpha=1.0)
    (3): ZeroPad2d((3, 4, 3, 4))
    (4): Conv2d(8, 16, kernel_size=(8, 8), stride=(2, 2))
    (5): ELU(alpha=1.0)
    (6): ZeroPad2d((1, 2, 1, 2))
    (7): Conv2d(16, 32, kernel_size=(4, 4), stride=(2, 2))
    (8): ELU(alpha=1.0)
    (9): ZeroPad2d((1, 2, 1, 2))
    (10): Conv2d(32, 64, kernel_size=(4, 4), stride=(2, 2))
    (11): ELU(alpha=1.0)
    (12): Flatten(start_dim=1, end_dim=-1)
    (13): Linear(in_features=1024, out_features=8, bias=True)
    (14): ELU(alpha=1.0)
  )
  (pnode): ODENet(
    (odenet): Sequential(
      (0): Linear(in_features=10, out_features=100, bias=True)
      (1): ELU(alpha=1.0)
      (2): Linear(in_features=100, out_features=8, bias=True)
    )
  )
  (decoder_mlp): Sequential(
    (0): Linear(in_features=8, out_features=512, bias=True)
    (1): ELU(alpha=1.0)
  )
  (decoder_conv): Sequential(
    (0): ConvTranspose2d(64, 32, kernel_size=(4, 4), stride=(2, 2), padding=(1, 1))
    (1): ELU(alpha=1.0)
    (2): ConvTranspose2d(32, 16, kernel_size=(4, 4), stride=(2, 2), padding=(1, 1))
    (3): ELU(alpha=1.0)
    (4): ConvTranspose2d(16, 8, kernel_size=(8, 8), stride=(2, 2), padding=(3, 3))
    (5): ELU(alpha=1.0)
    (6): ConvTranspose2d(8, 2, kernel_size=(16, 16), stride=(2, 2), padding=(7, 7))
  )
)
PNODE_Conv(
  (encoder): Sequential(
    (0): ZeroPad2d((7, 8, 7, 8))
    (1): Conv2d(1, 8, kernel_size=(16, 16), stride=(2, 2))
    (2): ELU(alpha=1.0)
    (3): ZeroPad2d((3, 4, 3, 4))
    (4): Conv2d(8, 16, kernel_size=(8, 8), stride=(2, 2))
    (5): ELU(alpha=1.0)
    (6): ZeroPad2d((1, 2, 1, 2))
    (7): Conv2d(16, 32, kernel_size=(4, 4), stride=(2, 2))
    (8): ELU(alpha=1.0)
    (9): ZeroPad2d((1, 2, 1, 2))
    (10): Conv2d(32, 64, kernel_size=(4, 4), stride=(2, 2))
    (11): ELU(alpha=1.0)
    (12): Flatten(start_dim=1, end_dim=-1)
    (13): Linear(in_features=1024, out_features=8, bias=True)
    (14): ELU(alpha=1.0)
  )
  (pnode): ODENet(
    (odenet): Sequential(
      (0): Linear(in_features=10, out_features=100, bias=True)
      (1): ELU(alpha=1.0)
      (2): Linear(in_features=100, out_features=8, bias=True)
    )
  )
  (decoder_mlp): Sequential(
    (0): Linear(in_features=8, out_features=512, bias=True)
    (1): ELU(alpha=1.0)
  )
  (decoder_conv): Sequential(
    (0): ConvTranspose2d(64, 32, kernel_size=(4, 4), stride=(2, 2), padding=(1, 1))
    (1): ELU(alpha=1.0)
    (2): ConvTranspose2d(32, 16, kernel_size=(4, 4), stride=(2, 2), padding=(1, 1))
    (3): ELU(alpha=1.0)
    (4): ConvTranspose2d(16, 8, kernel_size=(8, 8), stride=(2, 2), padding=(3, 3))
    (5): ELU(alpha=1.0)
    (6): ConvTranspose2d(8, 2, kernel_size=(16, 16), stride=(2, 2), padding=(7, 7))
  )
)
Number of parameters: 119342
Number of parameters: 119342
{'niters': 300, 'lr': 0.01, 'save': 'experiments/', 'load': None, 'random_seed': 1991, 'z0_encoder': 'odernn', 'decoder_mlp': False, 'decoder_mlp_nlayers': 1, 'node_layers': 1, 'latents': 8, 'units': 100}
{'niters': 300, 'lr': 0.01, 'save': 'experiments/', 'load': None, 'random_seed': 1991, 'z0_encoder': 'odernn', 'decoder_mlp': False, 'decoder_mlp_nlayers': 1, 'node_layers': 1, 'latents': 8, 'units': 100}
Train Idx
Train Idx
[12 22]
[12 22]
Calib Idx
Calib Idx
[17]
[17]
Test Idx
Test Idx
[14]
[14]
Checkpoint Path
Checkpoint Path
experiments/experiment_65007.ckpt
experiments/experiment_65007.ckpt
Input Dim: 
Input Dim: 
4096
4096
Param Dim: 
Param Dim: 
2
2
Latent Dim: 
Latent Dim: 
8
8
cuda:0
cuda:0
/home/ajivani/WLROM_new/WhiteLight
PNODE_Conv(
  (encoder): Sequential(
    (0): ZeroPad2d((7, 8, 7, 8))
    (1): Conv2d(1, 8, kernel_size=(16, 16), stride=(2, 2))
    (2): ELU(alpha=1.0)
    (3): ZeroPad2d((3, 4, 3, 4))
    (4): Conv2d(8, 16, kernel_size=(8, 8), stride=(2, 2))
    (5): ELU(alpha=1.0)
    (6): ZeroPad2d((1, 2, 1, 2))
    (7): Conv2d(16, 32, kernel_size=(4, 4), stride=(2, 2))
    (8): ELU(alpha=1.0)
    (9): ZeroPad2d((1, 2, 1, 2))
    (10): Conv2d(32, 64, kernel_size=(4, 4), stride=(2, 2))
    (11): ELU(alpha=1.0)
    (12): Flatten(start_dim=1, end_dim=-1)
    (13): Linear(in_features=1024, out_features=8, bias=True)
    (14): ELU(alpha=1.0)
  )
  (pnode): ODENet(
    (odenet): Sequential(
      (0): Linear(in_features=10, out_features=100, bias=True)
      (1): ELU(alpha=1.0)
      (2): Linear(in_features=100, out_features=8, bias=True)
    )
  )
  (decoder_mlp): Sequential(
    (0): Linear(in_features=8, out_features=512, bias=True)
    (1): ELU(alpha=1.0)
  )
  (decoder_conv): Sequential(
    (0): ConvTranspose2d(64, 32, kernel_size=(4, 4), stride=(2, 2), padding=(1, 1))
    (1): ELU(alpha=1.0)
    (2): ConvTranspose2d(32, 16, kernel_size=(4, 4), stride=(2, 2), padding=(1, 1))
    (3): ELU(alpha=1.0)
    (4): ConvTranspose2d(16, 8, kernel_size=(8, 8), stride=(2, 2), padding=(3, 3))
    (5): ELU(alpha=1.0)
    (6): ConvTranspose2d(8, 2, kernel_size=(16, 16), stride=(2, 2), padding=(7, 7))
  )
)
Number of parameters: 119342
{'niters': 300, 'lr': 0.01, 'save': 'experiments/', 'load': None, 'random_seed': 1991, 'z0_encoder': 'odernn', 'decoder_mlp': False, 'decoder_mlp_nlayers': 1, 'node_layers': 1, 'latents': 8, 'units': 100}
Train Idx
[12 22]
Calib Idx
[17]
Test Idx
[14]
Checkpoint Path
experiments/experiment_41365.ckpt
Input Dim: 
4096
Param Dim: 
2
Latent Dim: 
8
cuda:0
No such comm target registered: jupyter.widget.control
No such comm: 6e65c1d0-367e-448d-97d5-ca433250e630
/home/ajivani/WLROM_new/WhiteLight
/home/ajivani/WLROM_new/WhiteLight
PNODE_Conv(
  (encoder): Sequential(
    (0): ZeroPad2d((7, 8, 7, 8))
    (1): Conv2d(1, 8, kernel_size=(16, 16), stride=(2, 2))
    (2): ELU(alpha=1.0)
    (3): ZeroPad2d((3, 4, 3, 4))
    (4): Conv2d(8, 16, kernel_size=(8, 8), stride=(2, 2))
    (5): ELU(alpha=1.0)
    (6): ZeroPad2d((1, 2, 1, 2))
    (7): Conv2d(16, 32, kernel_size=(4, 4), stride=(2, 2))
    (8): ELU(alpha=1.0)
    (9): ZeroPad2d((1, 2, 1, 2))
    (10): Conv2d(32, 64, kernel_size=(4, 4), stride=(2, 2))
    (11): ELU(alpha=1.0)
    (12): Flatten(start_dim=1, end_dim=-1)
    (13): Linear(in_features=1024, out_features=8, bias=True)
    (14): ELU(alpha=1.0)
  )
  (pnode): ODENet(
    (odenet): Sequential(
      (0): Linear(in_features=10, out_features=100, bias=True)
      (1): ELU(alpha=1.0)
      (2): Linear(in_features=100, out_features=8, bias=True)
    )
  )
  (decoder_mlp): Sequential(
    (0): Linear(in_features=8, out_features=512, bias=True)
    (1): ELU(alpha=1.0)
  )
  (decoder_conv): Sequential(
    (0): ConvTranspose2d(64, 32, kernel_size=(4, 4), stride=(2, 2), padding=(1, 1))
    (1): ELU(alpha=1.0)
    (2): ConvTranspose2d(32, 16, kernel_size=(4, 4), stride=(2, 2), padding=(1, 1))
    (3): ELU(alpha=1.0)
    (4): ConvTranspose2d(16, 8, kernel_size=(8, 8), stride=(2, 2), padding=(3, 3))
    (5): ELU(alpha=1.0)
    (6): ConvTranspose2d(8, 2, kernel_size=(16, 16), stride=(2, 2), padding=(7, 7))
  )
)
PNODE_Conv(
  (encoder): Sequential(
    (0): ZeroPad2d((7, 8, 7, 8))
    (1): Conv2d(1, 8, kernel_size=(16, 16), stride=(2, 2))
    (2): ELU(alpha=1.0)
    (3): ZeroPad2d((3, 4, 3, 4))
    (4): Conv2d(8, 16, kernel_size=(8, 8), stride=(2, 2))
    (5): ELU(alpha=1.0)
    (6): ZeroPad2d((1, 2, 1, 2))
    (7): Conv2d(16, 32, kernel_size=(4, 4), stride=(2, 2))
    (8): ELU(alpha=1.0)
    (9): ZeroPad2d((1, 2, 1, 2))
    (10): Conv2d(32, 64, kernel_size=(4, 4), stride=(2, 2))
    (11): ELU(alpha=1.0)
    (12): Flatten(start_dim=1, end_dim=-1)
    (13): Linear(in_features=1024, out_features=8, bias=True)
    (14): ELU(alpha=1.0)
  )
  (pnode): ODENet(
    (odenet): Sequential(
      (0): Linear(in_features=10, out_features=100, bias=True)
      (1): ELU(alpha=1.0)
      (2): Linear(in_features=100, out_features=8, bias=True)
    )
  )
  (decoder_mlp): Sequential(
    (0): Linear(in_features=8, out_features=512, bias=True)
    (1): ELU(alpha=1.0)
  )
  (decoder_conv): Sequential(
    (0): ConvTranspose2d(64, 32, kernel_size=(4, 4), stride=(2, 2), padding=(1, 1))
    (1): ELU(alpha=1.0)
    (2): ConvTranspose2d(32, 16, kernel_size=(4, 4), stride=(2, 2), padding=(1, 1))
    (3): ELU(alpha=1.0)
    (4): ConvTranspose2d(16, 8, kernel_size=(8, 8), stride=(2, 2), padding=(3, 3))
    (5): ELU(alpha=1.0)
    (6): ConvTranspose2d(8, 2, kernel_size=(16, 16), stride=(2, 2), padding=(7, 7))
  )
)
Number of parameters: 119342
Number of parameters: 119342
{'niters': 300, 'lr': 0.01, 'save': 'experiments/', 'load': None, 'random_seed': 1991, 'z0_encoder': 'odernn', 'decoder_mlp': False, 'decoder_mlp_nlayers': 1, 'node_layers': 1, 'latents': 8, 'units': 100}
{'niters': 300, 'lr': 0.01, 'save': 'experiments/', 'load': None, 'random_seed': 1991, 'z0_encoder': 'odernn', 'decoder_mlp': False, 'decoder_mlp_nlayers': 1, 'node_layers': 1, 'latents': 8, 'units': 100}
Train Idx
Train Idx
[12 22]
[12 22]
Calib Idx
Calib Idx
[17]
[17]
Test Idx
Test Idx
[14]
[14]
Checkpoint Path
Checkpoint Path
experiments/experiment_21930.ckpt
experiments/experiment_21930.ckpt
Input Dim: 
Input Dim: 
4096
4096
Param Dim: 
Param Dim: 
2
2
Latent Dim: 
Latent Dim: 
8
8
cuda:0
cuda:0
/home/ajivani/WLROM_new/WhiteLight
PNODE_Conv(
  (encoder): Sequential(
    (0): ZeroPad2d((7, 8, 7, 8))
    (1): Conv2d(1, 8, kernel_size=(16, 16), stride=(2, 2))
    (2): ELU(alpha=1.0)
    (3): ZeroPad2d((3, 4, 3, 4))
    (4): Conv2d(8, 16, kernel_size=(8, 8), stride=(2, 2))
    (5): ELU(alpha=1.0)
    (6): ZeroPad2d((1, 2, 1, 2))
    (7): Conv2d(16, 32, kernel_size=(4, 4), stride=(2, 2))
    (8): ELU(alpha=1.0)
    (9): ZeroPad2d((1, 2, 1, 2))
    (10): Conv2d(32, 64, kernel_size=(4, 4), stride=(2, 2))
    (11): ELU(alpha=1.0)
    (12): Flatten(start_dim=1, end_dim=-1)
    (13): Linear(in_features=1024, out_features=8, bias=True)
    (14): ELU(alpha=1.0)
  )
  (pnode): ODENet(
    (odenet): Sequential(
      (0): Linear(in_features=10, out_features=100, bias=True)
      (1): ELU(alpha=1.0)
      (2): Linear(in_features=100, out_features=8, bias=True)
    )
  )
  (decoder_mlp): Sequential(
    (0): Linear(in_features=8, out_features=512, bias=True)
    (1): ELU(alpha=1.0)
  )
  (decoder_conv): Sequential(
    (0): ConvTranspose2d(64, 32, kernel_size=(4, 4), stride=(2, 2), padding=(1, 1))
    (1): ELU(alpha=1.0)
    (2): ConvTranspose2d(32, 16, kernel_size=(4, 4), stride=(2, 2), padding=(1, 1))
    (3): ELU(alpha=1.0)
    (4): ConvTranspose2d(16, 8, kernel_size=(8, 8), stride=(2, 2), padding=(3, 3))
    (5): ELU(alpha=1.0)
    (6): ConvTranspose2d(8, 2, kernel_size=(16, 16), stride=(2, 2), padding=(7, 7))
  )
)
Number of parameters: 119342
{'niters': 300, 'lr': 0.01, 'save': 'experiments/', 'load': None, 'random_seed': 1991, 'z0_encoder': 'odernn', 'decoder_mlp': False, 'decoder_mlp_nlayers': 1, 'node_layers': 1, 'latents': 8, 'units': 100}
Train Idx
[12 22]
Calib Idx
[17]
Test Idx
[14]
Checkpoint Path
experiments/experiment_47683.ckpt
Input Dim: 
4096
Param Dim: 
2
Latent Dim: 
8
cuda:0
/home/ajivani/WLROM_new/WhiteLight
PNODE_Conv(
  (encoder): Sequential(
    (0): ZeroPad2d((7, 8, 7, 8))
    (1): Conv2d(1, 8, kernel_size=(16, 16), stride=(2, 2))
    (2): ELU(alpha=1.0)
    (3): ZeroPad2d((3, 4, 3, 4))
    (4): Conv2d(8, 16, kernel_size=(8, 8), stride=(2, 2))
    (5): ELU(alpha=1.0)
    (6): ZeroPad2d((1, 2, 1, 2))
    (7): Conv2d(16, 32, kernel_size=(4, 4), stride=(2, 2))
    (8): ELU(alpha=1.0)
    (9): ZeroPad2d((1, 2, 1, 2))
    (10): Conv2d(32, 64, kernel_size=(4, 4), stride=(2, 2))
    (11): ELU(alpha=1.0)
    (12): Flatten(start_dim=1, end_dim=-1)
    (13): Linear(in_features=1024, out_features=8, bias=True)
    (14): ELU(alpha=1.0)
  )
  (pnode): ODENet(
    (odenet): Sequential(
      (0): Linear(in_features=10, out_features=100, bias=True)
      (1): ELU(alpha=1.0)
      (2): Linear(in_features=100, out_features=8, bias=True)
    )
  )
  (decoder_mlp): Sequential(
    (0): Linear(in_features=8, out_features=512, bias=True)
    (1): ELU(alpha=1.0)
  )
  (decoder_conv): Sequential(
    (0): ConvTranspose2d(64, 32, kernel_size=(4, 4), stride=(2, 2), padding=(1, 1))
    (1): ELU(alpha=1.0)
    (2): ConvTranspose2d(32, 16, kernel_size=(4, 4), stride=(2, 2), padding=(1, 1))
    (3): ELU(alpha=1.0)
    (4): ConvTranspose2d(16, 8, kernel_size=(8, 8), stride=(2, 2), padding=(3, 3))
    (5): ELU(alpha=1.0)
    (6): ConvTranspose2d(8, 2, kernel_size=(16, 16), stride=(2, 2), padding=(7, 7))
  )
)
Number of parameters: 119342
{'niters': 300, 'lr': 0.01, 'save': 'experiments/', 'load': None, 'random_seed': 1991, 'z0_encoder': 'odernn', 'decoder_mlp': False, 'decoder_mlp_nlayers': 1, 'node_layers': 1, 'latents': 8, 'units': 100}
Train Idx
[12 22]
Calib Idx
[17]
Test Idx
[14]
Checkpoint Path
experiments/experiment_52083.ckpt
Input Dim: 
4096
Param Dim: 
2
Latent Dim: 
8
cuda:0
/home/ajivani/WLROM_new/WhiteLight
PNODE_Conv(
  (encoder): Sequential(
    (0): ZeroPad2d((7, 8, 7, 8))
    (1): Conv2d(1, 8, kernel_size=(16, 16), stride=(2, 2))
    (2): ELU(alpha=1.0)
    (3): ZeroPad2d((3, 4, 3, 4))
    (4): Conv2d(8, 16, kernel_size=(8, 8), stride=(2, 2))
    (5): ELU(alpha=1.0)
    (6): ZeroPad2d((1, 2, 1, 2))
    (7): Conv2d(16, 32, kernel_size=(4, 4), stride=(2, 2))
    (8): ELU(alpha=1.0)
    (9): ZeroPad2d((1, 2, 1, 2))
    (10): Conv2d(32, 64, kernel_size=(4, 4), stride=(2, 2))
    (11): ELU(alpha=1.0)
    (12): Flatten(start_dim=1, end_dim=-1)
    (13): Linear(in_features=1024, out_features=8, bias=True)
    (14): ELU(alpha=1.0)
  )
  (pnode): ODENet(
    (odenet): Sequential(
      (0): Linear(in_features=10, out_features=100, bias=True)
      (1): ELU(alpha=1.0)
      (2): Linear(in_features=100, out_features=8, bias=True)
    )
  )
  (decoder_mlp): Sequential(
    (0): Linear(in_features=8, out_features=512, bias=True)
    (1): ELU(alpha=1.0)
  )
  (decoder_conv): Sequential(
    (0): ConvTranspose2d(64, 32, kernel_size=(4, 4), stride=(2, 2), padding=(1, 1))
    (1): ELU(alpha=1.0)
    (2): ConvTranspose2d(32, 16, kernel_size=(4, 4), stride=(2, 2), padding=(1, 1))
    (3): ELU(alpha=1.0)
    (4): ConvTranspose2d(16, 8, kernel_size=(8, 8), stride=(2, 2), padding=(3, 3))
    (5): ELU(alpha=1.0)
    (6): ConvTranspose2d(8, 2, kernel_size=(16, 16), stride=(2, 2), padding=(7, 7))
  )
)
Number of parameters: 119342
{'niters': 300, 'lr': 0.01, 'save': 'experiments/', 'load': None, 'random_seed': 1991, 'z0_encoder': 'odernn', 'decoder_mlp': False, 'decoder_mlp_nlayers': 1, 'node_layers': 1, 'latents': 8, 'units': 100}
Train Idx
[12 22]
Calib Idx
[17]
Test Idx
[14]
Checkpoint Path
experiments/experiment_90556.ckpt
Input Dim: 
4096
Param Dim: 
2
Latent Dim: 
8
cuda:0
/home/ajivani/WLROM_new/WhiteLight
PNODE_Conv(
  (encoder): Sequential(
    (0): ZeroPad2d((7, 8, 7, 8))
    (1): Conv2d(1, 8, kernel_size=(16, 16), stride=(2, 2))
    (2): ELU(alpha=1.0)
    (3): ZeroPad2d((3, 4, 3, 4))
    (4): Conv2d(8, 16, kernel_size=(8, 8), stride=(2, 2))
    (5): ELU(alpha=1.0)
    (6): ZeroPad2d((1, 2, 1, 2))
    (7): Conv2d(16, 32, kernel_size=(4, 4), stride=(2, 2))
    (8): ELU(alpha=1.0)
    (9): ZeroPad2d((1, 2, 1, 2))
    (10): Conv2d(32, 64, kernel_size=(4, 4), stride=(2, 2))
    (11): ELU(alpha=1.0)
    (12): Flatten(start_dim=1, end_dim=-1)
    (13): Linear(in_features=1024, out_features=8, bias=True)
    (14): ELU(alpha=1.0)
  )
  (pnode): ODENet(
    (odenet): Sequential(
      (0): Linear(in_features=10, out_features=100, bias=True)
      (1): ELU(alpha=1.0)
      (2): Linear(in_features=100, out_features=8, bias=True)
    )
  )
  (decoder_mlp): Sequential(
    (0): Linear(in_features=8, out_features=512, bias=True)
    (1): ELU(alpha=1.0)
  )
  (decoder_conv): Sequential(
    (0): ConvTranspose2d(64, 32, kernel_size=(4, 4), stride=(2, 2), padding=(1, 1))
    (1): ELU(alpha=1.0)
    (2): ConvTranspose2d(32, 16, kernel_size=(4, 4), stride=(2, 2), padding=(1, 1))
    (3): ELU(alpha=1.0)
    (4): ConvTranspose2d(16, 8, kernel_size=(8, 8), stride=(2, 2), padding=(3, 3))
    (5): ELU(alpha=1.0)
    (6): ConvTranspose2d(8, 2, kernel_size=(16, 16), stride=(2, 2), padding=(7, 7))
  )
)
Number of parameters: 119342
{'niters': 300, 'lr': 0.01, 'save': 'experiments/', 'load': None, 'random_seed': 1991, 'z0_encoder': 'odernn', 'decoder_mlp': False, 'decoder_mlp_nlayers': 1, 'node_layers': 1, 'latents': 8, 'units': 100}
Train Idx
[12 22]
Calib Idx
[17]
Test Idx
[14]
Checkpoint Path
experiments/experiment_63635.ckpt
Input Dim: 
4096
Param Dim: 
2
Latent Dim: 
8
cuda:0
/home/ajivani/WLROM_new/WhiteLight
/home/ajivani/WLROM_new/WhiteLight
PNODE_Conv(
  (encoder): Sequential(
    (0): ZeroPad2d((7, 8, 7, 8))
    (1): Conv2d(1, 8, kernel_size=(16, 16), stride=(2, 2))
    (2): ELU(alpha=1.0)
    (3): ZeroPad2d((3, 4, 3, 4))
    (4): Conv2d(8, 16, kernel_size=(8, 8), stride=(2, 2))
    (5): ELU(alpha=1.0)
    (6): ZeroPad2d((1, 2, 1, 2))
    (7): Conv2d(16, 32, kernel_size=(4, 4), stride=(2, 2))
    (8): ELU(alpha=1.0)
    (9): ZeroPad2d((1, 2, 1, 2))
    (10): Conv2d(32, 64, kernel_size=(4, 4), stride=(2, 2))
    (11): ELU(alpha=1.0)
    (12): Flatten(start_dim=1, end_dim=-1)
    (13): Linear(in_features=1024, out_features=8, bias=True)
    (14): ELU(alpha=1.0)
  )
  (pnode): ODENet(
    (odenet): Sequential(
      (0): Linear(in_features=10, out_features=100, bias=True)
      (1): ELU(alpha=1.0)
      (2): Linear(in_features=100, out_features=8, bias=True)
    )
  )
  (decoder_mlp): Sequential(
    (0): Linear(in_features=8, out_features=512, bias=True)
    (1): ELU(alpha=1.0)
  )
  (decoder_conv): Sequential(
    (0): ConvTranspose2d(64, 32, kernel_size=(4, 4), stride=(2, 2), padding=(1, 1))
    (1): ELU(alpha=1.0)
    (2): ConvTranspose2d(32, 16, kernel_size=(4, 4), stride=(2, 2), padding=(1, 1))
    (3): ELU(alpha=1.0)
    (4): ConvTranspose2d(16, 8, kernel_size=(8, 8), stride=(2, 2), padding=(3, 3))
    (5): ELU(alpha=1.0)
    (6): ConvTranspose2d(8, 2, kernel_size=(16, 16), stride=(2, 2), padding=(7, 7))
  )
)
PNODE_Conv(
  (encoder): Sequential(
    (0): ZeroPad2d((7, 8, 7, 8))
    (1): Conv2d(1, 8, kernel_size=(16, 16), stride=(2, 2))
    (2): ELU(alpha=1.0)
    (3): ZeroPad2d((3, 4, 3, 4))
    (4): Conv2d(8, 16, kernel_size=(8, 8), stride=(2, 2))
    (5): ELU(alpha=1.0)
    (6): ZeroPad2d((1, 2, 1, 2))
    (7): Conv2d(16, 32, kernel_size=(4, 4), stride=(2, 2))
    (8): ELU(alpha=1.0)
    (9): ZeroPad2d((1, 2, 1, 2))
    (10): Conv2d(32, 64, kernel_size=(4, 4), stride=(2, 2))
    (11): ELU(alpha=1.0)
    (12): Flatten(start_dim=1, end_dim=-1)
    (13): Linear(in_features=1024, out_features=8, bias=True)
    (14): ELU(alpha=1.0)
  )
  (pnode): ODENet(
    (odenet): Sequential(
      (0): Linear(in_features=10, out_features=100, bias=True)
      (1): ELU(alpha=1.0)
      (2): Linear(in_features=100, out_features=8, bias=True)
    )
  )
  (decoder_mlp): Sequential(
    (0): Linear(in_features=8, out_features=512, bias=True)
    (1): ELU(alpha=1.0)
  )
  (decoder_conv): Sequential(
    (0): ConvTranspose2d(64, 32, kernel_size=(4, 4), stride=(2, 2), padding=(1, 1))
    (1): ELU(alpha=1.0)
    (2): ConvTranspose2d(32, 16, kernel_size=(4, 4), stride=(2, 2), padding=(1, 1))
    (3): ELU(alpha=1.0)
    (4): ConvTranspose2d(16, 8, kernel_size=(8, 8), stride=(2, 2), padding=(3, 3))
    (5): ELU(alpha=1.0)
    (6): ConvTranspose2d(8, 2, kernel_size=(16, 16), stride=(2, 2), padding=(7, 7))
  )
)
Number of parameters: 119342
Number of parameters: 119342
{'niters': 300, 'lr': 0.01, 'save': 'experiments/', 'load': None, 'random_seed': 1991, 'z0_encoder': 'odernn', 'decoder_mlp': False, 'decoder_mlp_nlayers': 1, 'node_layers': 1, 'latents': 8, 'units': 100}
{'niters': 300, 'lr': 0.01, 'save': 'experiments/', 'load': None, 'random_seed': 1991, 'z0_encoder': 'odernn', 'decoder_mlp': False, 'decoder_mlp_nlayers': 1, 'node_layers': 1, 'latents': 8, 'units': 100}
Train Idx
Train Idx
[12 22]
[12 22]
Calib Idx
Calib Idx
[17]
[17]
Test Idx
Test Idx
[14]
[14]
Checkpoint Path
Checkpoint Path
experiments/experiment_6323.ckpt
experiments/experiment_6323.ckpt
Input Dim: 
Input Dim: 
4096
4096
Param Dim: 
Param Dim: 
2
2
Latent Dim: 
Latent Dim: 
8
8
cuda:0
cuda:0
/home/ajivani/WLROM_new/WhiteLight
PNODE_Conv(
  (encoder): Sequential(
    (0): ZeroPad2d((7, 8, 7, 8))
    (1): Conv2d(1, 8, kernel_size=(16, 16), stride=(2, 2))
    (2): ELU(alpha=1.0)
    (3): ZeroPad2d((3, 4, 3, 4))
    (4): Conv2d(8, 16, kernel_size=(8, 8), stride=(2, 2))
    (5): ELU(alpha=1.0)
    (6): ZeroPad2d((1, 2, 1, 2))
    (7): Conv2d(16, 32, kernel_size=(4, 4), stride=(2, 2))
    (8): ELU(alpha=1.0)
    (9): ZeroPad2d((1, 2, 1, 2))
    (10): Conv2d(32, 64, kernel_size=(4, 4), stride=(2, 2))
    (11): ELU(alpha=1.0)
    (12): Flatten(start_dim=1, end_dim=-1)
    (13): Linear(in_features=1024, out_features=8, bias=True)
    (14): ELU(alpha=1.0)
  )
  (pnode): ODENet(
    (odenet): Sequential(
      (0): Linear(in_features=10, out_features=100, bias=True)
      (1): ELU(alpha=1.0)
      (2): Linear(in_features=100, out_features=8, bias=True)
    )
  )
  (decoder_mlp): Sequential(
    (0): Linear(in_features=8, out_features=512, bias=True)
    (1): ELU(alpha=1.0)
  )
  (decoder_conv): Sequential(
    (0): ConvTranspose2d(64, 32, kernel_size=(4, 4), stride=(2, 2), padding=(1, 1))
    (1): ELU(alpha=1.0)
    (2): ConvTranspose2d(32, 16, kernel_size=(4, 4), stride=(2, 2), padding=(1, 1))
    (3): ELU(alpha=1.0)
    (4): ConvTranspose2d(16, 8, kernel_size=(8, 8), stride=(2, 2), padding=(3, 3))
    (5): ELU(alpha=1.0)
    (6): ConvTranspose2d(8, 2, kernel_size=(16, 16), stride=(2, 2), padding=(7, 7))
  )
)
Number of parameters: 119342
{'niters': 300, 'lr': 0.01, 'save': 'experiments/', 'load': None, 'random_seed': 1991, 'z0_encoder': 'odernn', 'decoder_mlp': False, 'decoder_mlp_nlayers': 1, 'node_layers': 1, 'latents': 8, 'units': 100}
Train Idx
[12 22]
Calib Idx
[17]
Test Idx
[14]
Checkpoint Path
experiments/experiment_56597.ckpt
Input Dim: 
…
Epoch 0596 [Val seq (cond on sampled tp)] | Loss 9.063479e-02 | Train loss (one batch) 1.634509e-02]
Epoch 0597 [Val seq (cond on sampled tp)] | Loss 9.130899e-02 | Train loss (one batch) 1.635439e-02]
Epoch 0598 [Val seq (cond on sampled tp)] | Loss 9.061091e-02 | Train loss (one batch) 1.636472e-02]
Epoch 0599 [Val seq (cond on sampled tp)] | Loss 9.126763e-02 | Train loss (one batch) 1.635542e-02]
Epoch 0600 [Val seq (cond on sampled tp)] | Loss 9.062394e-02 | Train loss (one batch) 1.632923e-02]
Saving Check Point
/home/ajivani/WLROM_new/WhiteLight
PNODE_Conv(
  (encoder): Sequential(
    (0): ZeroPad2d((7, 8, 7, 8))
    (1): Conv2d(1, 8, kernel_size=(16, 16), stride=(2, 2))
    (2): ELU(alpha=1.0)
    (3): ZeroPad2d((3, 4, 3, 4))
    (4): Conv2d(8, 16, kernel_size=(8, 8), stride=(2, 2))
    (5): ELU(alpha=1.0)
    (6): ZeroPad2d((1, 2, 1, 2))
    (7): Conv2d(16, 32, kernel_size=(4, 4), stride=(2, 2))
    (8): ELU(alpha=1.0)
    (9): ZeroPad2d((1, 2, 1, 2))
    (10): Conv2d(32, 64, kernel_size=(4, 4), stride=(2, 2))
    (11): ELU(alpha=1.0)
    (12): Flatten(start_dim=1, end_dim=-1)
    (13): Linear(in_features=1024, out_features=20, bias=True)
    (14): ELU(alpha=1.0)
  )
  (pnode): ODENet(
    (odenet): Sequential(
      (0): Linear(in_features=22, out_features=100, bias=True)
      (1): ELU(alpha=1.0)
      (2): Linear(in_features=100, out_features=20, bias=True)
    )
  )
  (decoder_mlp): Sequential(
    (0): Linear(in_features=20, out_features=512, bias=True)
    (1): ELU(alpha=1.0)
  )
  (decoder_conv): Sequential(
    (0): ConvTranspose2d(64, 32, kernel_size=(4, 4), stride=(2, 2), padding=(1, 1))
    (1): ELU(alpha=1.0)
    (2): ConvTranspose2d(32, 16, kernel_size=(4, 4), stride=(2, 2), padding=(1, 1))
    (3): ELU(alpha=1.0)
    (4): ConvTranspose2d(16, 8, kernel_size=(8, 8), stride=(2, 2), padding=(3, 3))
    (5): ELU(alpha=1.0)
    (6): ConvTranspose2d(8, 2, kernel_size=(16, 16), stride=(2, 2), padding=(7, 7))
  )
)
Number of parameters: 140198
{'niters': 600, 'lr': 0.01, 'save': 'experiments/', 'load': None, 'random_seed': 1991, 'z0_encoder': 'odernn', 'decoder_mlp': False, 'decoder_mlp_nlayers': 1, 'node_layers': 1, 'latents': 20, 'units': 100}
Train Idx
[12 22]
Validation Idx
[17]
Test Idx
[14]
Checkpoint Path
experiments/experiment_68707.ckpt
…
